mnist_model_fully_connected.pt (torch, 670159 bytes, 4 tensors)

weight f4 [32, 1, 3, 3]
00000000: 600c b93e 91cb 0f3d 25f5 03bf ac4f 773e
00000010: a0cb 153f d1c4 a73e 97b2 00bf 3b3b 993e
00000020: b0b2 2a3e 549f edbe a94d e03e e0ac 283e
00000030: c88c d9bd 439e 933e 02d2 853e bea3 9abe
00000040: 6cf5 9b3e 3eca ae3e 3967 8fbe 9490 85bd
00000050: b284 24be d51a c7be 50f6 81be fcbf 8d3d
00000060: 36ec 84be 4e9e bb3e 762f f13e d372 55be
00000070: b224 80be a361 923c 509e 5e3d b429 5d3e
00000080: 147f b83c b052 51be 71f2 503d 2e20 a53e
00000090: 2feb 833e ba56 d63e 9d1d aa3c 1927 e9bc
000000a0: f9d6 b43d e1d0 adbe 5233 cf3e 64f1 003e
000000b0: d556 e83d 61d2 6dbe ef25 0fbf d7db adbe
000000c0: 9a00 0c3e ccf9 dbbe 20a4 08bf e294 473f
000000d0: 9a63 2f3f 73d5 bc3e f3f4 babe a1af 0ebf
000000e0: 2fa2 dbbe 2b27 90be acb4 26bd c8a8 f33e
000000f0: 73e2 213f 5dae 143f bb96 81bd f1ac 913e
00000100: 4cf9 7fbe 7af8 2abe 9d47 c53e 44c0 e7bd
00000110: cfb8 2c3e d228 7b3e 314f debd 6af8 663e
00000120: 00d2 e93e 515b 593d 049e 0fbf dd81 ad3e
00000130: 2f56 c63e 3a2c 1b3e f52f 1fbd f751 2d3e
00000140: 9127 1e3e ab62 99bd 6d7d 193e a21b 92be
00000150: 5ad5 753e 230f 283e b06f 1abf d7ac 123f
00000160: cfa9 e23e a0ea 01bf 6702 3abe 17c4 153e
00000170: 4886 313e e809 66be 9921 3cbe 95ec d63e
00000180: 6ecf dfbe 21b2 ce3e 3373 3a3e 044b 343e
00000190: fc86 aebe 69ee 64be 4afe cfbe 5b8c 053e
000001a0: d967 8fbe c239 97be ce16 e83c 2337 d3bd
000001b0: 48c3 3ebe 623a 48be 0323 1ebe 0cbd 8bbe
000001c0: e77d aebe 2115 95be 2fde ec3e 7164 863e
000001d0: 5bc4 30be 5b50 fb3d feb1 80be d16d 08bf
000001e0: 5070 66be a251 7cbd af91 92be 9975 133f
000001f0: 3576 613e 33ce fc3e 0237 fcbd 3abf 6cbd
00000200: d714 873d 3a8d 083f 27bf df3e 77a2 a63e
00000210: 2ac9 e9bd 442e 3cbe a97d bcbe 9d86 e1be
00000220: 2cfd b1be 4f84 b0be b8e4 7dbd 10b0 893e
00000230: 5db8 3e3e 3b83 22be 253f 833e 9ae0 cd3d
00000240: 45f6 18bf 6aca bb3e 1f76 c83e 2bb3 3dbf
00000250: 615e a63e 3f05 c93e 313f 08bf 64c6 543e
00000260: b21d c33d 352f f5be 9467 ef3e 52c7 ca3e
00000270: 1888 40bd 92da 103f 1653 50be aa44 f23e
00000280: 6c89 f03e 9022 14bf 1836 263f 8b65 e53e
00000290: 06db 1b3f 32e2 9ebe 1b8a bd3e dec6 f4bd
000002a0: 7298 5fbf 7b55 43bf 783e 40be 6eee 113e
000002b0: 55d9 203d c1b9 253b ed78 5dbe a0e5 1cbe
000002c0: b228 a3be c2b1 89be a787 85be 73b1 2f3e
000002d0: 2acf 013f 7323 f43e 36fa b3be 877c e23e
000002e0: e53b dabe 7e23 b8be 24e8 cdbd e2e5 96be
000002f0: 6b1d 57be 0055 e93e 9967 d73d dd5b 17bf
00000300: 8e48 233f 924d 71be 5aab b9be 12e7 b33e
00000310: 33c0 31bb 1e05 afbe cbee 883c dcda 2dbd
00000320: 70c1 3dbe 4ce0 53be 293f 3f3e 7d43 58be
00000330: 8d02 18be 2107 a83d 0f9f c3bc 3561 e2be
00000340: 8e42 8e3e 8162 7e3d 1cea e7be bfd9 8a3e
00000350: 46f6 593e fe13 08bf b6ba 693e 4064 9a3d
00000360: 0406 2ebd 6358 ef3e eff6 bd3e 8de6 25bd
00000370: 31dc 3d3d 9dd9 e43e b06c 18bf e8a5 ffbe
00000380: 1d8b bcbe 9070 353d c728 893e 3788 4dbe
00000390: 4cc4 d23e c718 e53e f152 54bd a541 033d
000003a0: 6e1b e03d 7df9 c63d bc3f a3be 5b89 b8bd
000003b0: 0038 1cbe 05b5 c73e 8377 e3bd 9171 9abe
000003c0: 5b29 b63c 2f94 d23e ab31 173f f96f bb3e
000003d0: a041 263d dd92 69be 3f60 8e3d 0bff 6d3e
000003e0: 1659 2cbe f5ba bbbe 6064 22bd 5490 52be
000003f0: fda2 dbbe 49e3 91be 237e 863e 8b4a aebe
0.36142254 0.035106245 -0.51545936 0.24151486 0.5851383 0.32767347 -0.50272506 0.29928002
0.16669726 -0.4641062 0.4380925 0.16472197 -0.10622555 0.28831682 0.26136786 -0.3020305
0.3046068 0.34138674 -0.2800844 -0.06521717 -0.16066244 -0.3888766 -0.25383234 0.06921384
-0.25961465 0.36644214 0.47106522 -0.20844583 -0.25027996 0.017868822 0.054350197 0.2159794
0.022521533 -0.20441699 0.05101246 0.32251114 0.25765368 0.41863042 0.020766074 -0.028461026
0.08830065 -0.33948424 0.40468842 0.12592083 0.11344687 -0.23224784 -0.5591726 -0.33956787
0.13672104 -0.42964017 -0.53375435 0.7796155 0.68511355 0.368816 -0.36515006 -0.5573674
-0.42897174 -0.28154883 -0.040699646 0.47589707 0.6323616 0.5807856 -0.06327578 0.28452256
-0.24997443 -0.16696349 0.385312 -0.11315969 0.16867374 0.2452729 -0.10854948 0.225557
0.4566803 0.0530656 -0.5610049 0.3388814 0.38737628 0.1515359 -0.038864095 0.16925798
0.15444781 -0.074895225 0.14989252 -0.28536707 0.24007168 0.16412024 -0.6032667 0.5729498
0.4427018 -0.50748634 -0.18164979 0.14625584 0.1733638 -0.22464716 -0.18372191 0.41977373
-0.43712944 0.40370277 0.18208008 0.17606741 -0.3408736 -0.22356571 -0.40623695 0.13041823
-0.28008917 -0.29536253 0.028331187 -0.10313251 -0.18629181 -0.19553521 -0.15443043 -0.2729267
-0.3408043 -0.29117683 0.46263263 0.26248506 -0.17262404 0.12271186 -0.25135797 -0.53292567
-0.22503781 -0.06160129 -0.28626773 0.57601315 0.22017749 0.49376068 -0.123151794 -0.057799555
0.06595772 0.53340495 0.43700525 0.32545826 -0.11415322 -0.18377024 -0.3681462 -0.44048014
-0.34763467 -0.34475943 -0.0619857 0.26892138 0.18625017 -0.15870373 0.25634113 0.10052605
-0.5975078 0.36677867 0.3915262 -0.74101514 0.3249388 0.39261815 -0.5322142 0.20778805
0.09527148 -0.4788758 0.4675871 0.39605194 -0.04700479 0.5658351 -0.20344195 0.47318012
0.46979845 -0.5786524 0.6492629 0.44804034 0.6088108 -0.31031948 0.3701943 -0.119519934
-0.8734199 -0.7630231 -0.1877383 0.1425111 0.039269764 0.002528772 -0.21628161 -0.1532197
-0.31866986 -0.2689343 -0.26080057 0.17157535 0.5070673 0.47683296 -0.35151833 0.44235632
-0.4262382 -0.35964578 -0.10054043 -0.29472262 -0.21007316 0.45572662 0.105178066 -0.5912455
0.63782585 -0.23564747 -0.36263543 0.3513723 -0.0027122616 -0.34183592 0.016715428 -0.04244505
-0.18530822 -0.20691031 0.18676437 -0.21119495 -0.14844723 0.08204485 -0.023879556 -0.44214788
0.27785152 0.06210566 -0.452958 0.27119252 0.21285352 -0.53155506 0.22825131 0.075386524
-0.042486206 0.4674712 0.37102458 -0.040503073 0.04635257 0.44697276 -0.59540844 -0.49931264
-0.36824885 0.0442968 0.26788923 -0.20071493 0.41165388 0.44745466 -0.05183691 0.032045025
0.10942732 0.09715555 -0.31884563 -0.090105735 -0.15255737 0.39005294 -0.111067794 -0.3016477
0.022236517 0.4112868 0.5906016 0.36608866 0.04058993 -0.2280993 0.06951951 0.23241822
-0.16830859 -0.36666074 -0.039646506 -0.2056287 -0.42897788 -0.28493717 0.2626811 -0.34041247

bias f4 [32]
00000000: 1e26 bbbe e643 abbe 04a8 f13d 47ea 0bbe
00000010: 2ad1 51be b156 93bd 1d95 9dbb c20d 12bc
00000020: 34b7 c8be de2b f3bc 26d3 50be f75a d13e
00000030: 5835 6c3e e2cd bdbc e621 0ebc beb4 273e
00000040: 0ebd efbd ff68 1ebf 7fb7 4ebd 05ab dcbd
00000050: 2efb 4ebb 79f6 9ebd a4c5 c4bd 98e5 a53d
00000060: f36e 8aba cbf6 57be 03aa 59bc e7f7 f239
00000070: 403b a3be 834f edbe e91f 49be 8211 cc3d
-0.3655252 -0.3345024 0.117996246 -0.13663588 -0.20489946 -0.071942694 -0.0048090355 -0.008914413
-0.39202273 -0.029684003 -0.20393047 0.40889713 0.23067224 -0.023169462 -0.008675074 0.16377541
-0.11705981 -0.6187896 -0.050467964 -0.10774807 -0.003158282 -0.07761855 -0.096080095 0.08100432
-0.001056163 -0.21090238 -0.013285163 0.0004634254 -0.31881142 -0.46349725 -0.19641079 0.09964277

weight f4 [20, 8320]
00000000: f89d 93bb 5565 2a3c 3738 72bb 0cd4 a43b
00000010: 9b29 84bc 1688 c9bc 6eb7 b4bc cc64 d4bc
00000020: 2ef1 1fbd fb2a e9bc a6d7 28bc ce71 e33b
00000030: 171f 1bbc 256e d83a bdcb 09bb b543 cbbb
00000040: 8a18 47bc cc29 10bc 8c95 653c 456b 923c
00000050: 37f5 1a3d 597e ca3b f5c1 0ebd fac7 d9bc
00000060: a035 78bc dcca d83b 3fbb dcba 1e7f bc3b
00000070: dbf3 16bc f15a 85bc 45e5 32bc 4439 7bbc
00000080: 7af1 273d 665a 973d 4379 503d 1cb5 463d
00000090: f239 81bb 3334 e4bc c2a9 83bc d507 1cbc
000000a0: 5771 8bbb 346a d9bc 7ccb 0cbd 6071 00bd
000000b0: 45ae 81bb cd00 503d 3414 c23d b143 8a3d
000000c0: b28b 823d d42a 603d e279 b83b 5515 98bc
000000d0: 6391 6d39 6d3f dabc f029 02bd f7cf 2dbd
000000e0: 38aa d0bc dc78 8f3c 0fd1 21bc 6b20 533d
000000f0: baa8 bf3d 6ab6 ef3d 346b 313d ed06 de3c
00000100: 2373 8abc abe1 bd3b 21c4 dabc ce90 993c
00000110: 3667 5bbd d0a6 56bb 211f 4dbd eda2 3ebd
00000120: becc d9bd 61bf 8abc 6a7d 183d a425 773d
00000130: d0ad 873d 7712 a53b bc71 4fbb e18f 5bbc
00000140: 1216 2ebb 8fe0 5d3c ce56 04bc df12 01bd
00000150: 912b e1bd 4234 27be 7afc 91bd c402 a4bc
00000160: e058 043d b1ad 663d ff43 1e3c c8cc a33b
00000170: 5c19 ff3a 65ce 5d3c 2b36 913c 7791 4a3b
00000180: 58bb abbd 15e8 21be f917 d4bd cea4 46bd
00000190: 2ca5 51bc c7e5 173d 4fdb a33c 2c24 203c
000001a0: 973d 51bc 850e d6ba 0de7 883c fbe8 203d
000001b0: d327 6abc ac6c 59bd 4c11 a8bd 67b8 4dbd
000001c0: f795 433c 3c05 22bd 25cf abb9 7d29 8e3c
000001d0: dcb5 f4bb 3f9e 5dba f9fe 0cbb 9ce3 0f3d
000001e0: 6bb8 a33c 21c2 833d 224c 3bbc 5cc7 33bd
000001f0: bc3a a6bc 7812 e3bc b96c cdbc 6f97 07bd
00000200: 48ea 25bc 8ff8 27bc aa1a 01bc 527e db3b
00000210: 42ef 0b3d 4317 b93c 9ab2 77bb 100b 243d
00000220: 8eff 83bc aae0 ab3c 5b62 cdbb 1f2f f5bc
00000230: dbe3 0cbd 8057 fe3b 2a85 c5bb 257d a63b
00000240: 3e38 11bc c9ce 00bc 7adc 46bc d76b f03c
00000250: 1d4d b63c a8a4 9e3c e39e 3fbb 529d 84bc
00000260: 4cc6 a9bc c8cc 7bbc 99f2 50bc 7c5c c6bb
00000270: e399 463b b45c 02bc 7c07 9aba 576b adbc
00000280: cbd5 b6bb 3ce2 09bc b063 d8bc 85ab 553b
00000290: 9c54 5dba b679 65bb 4805 583b cdca e0ba
000002a0: 024c b1bb d958 473b b045 083c a058 6c3c
000002b0: b8a5 e53c 20f7 7ebc 4d94 4ebc 1cc2 c2bb
000002c0: 98f9 96ba 7f0b 563c a7b8 cbbb 18ef 733a
000002d0: 847c 9bbb 7235 b13b 8d2c 1ebc b6b4 98b9
000002e0: 92ed 53bc 0a18 52bc af58 0fbc 05cc c3bc
000002f0: a956 9dbb 5eef beba 3b50 ccba 6776 3dbc
00000300: 6496 883c 7b25 cfbb 2d2c b3bb 4183 a7bb
00000310: 4722 843c 4185 d5ba ff74 643c a59d d33c
00000320: 420b 49bc f9fb 933b d1d0 99bc 1a49 833c
00000330: d5d4 a4bc 5e40 36bc 379f bfbc 6abb bcbb
00000340: 078e 0cbc 49f4 2cbc 1c40 2bbc ad15 393c
00000350: d4ae 323c 19b1 d73b 2eb1 55bc 09aa d53c
00000360: 5f87 043d 276b 973b ca14 37ba 75fb 8fbc
00000370: 0a14 c339 1e9d a33b c16c 093c 5968 8b3b
00000380: 7be5 903c 26d5 8a3c f1f2 eabb 3a85 fb3b
00000390: e7ce b6ba 5feb 853c fb6a 02bd 55ee 013c
000003a0: fc96 56bc 51e1 173c 6e3c 18bc e8b0 37bc
000003b0: cb94 493b 68ab 3b3b ff09 40bc 0345 bcbb
000003c0: bafe 38bc 206c 543b 43cc 9dbc c443 1bbc
000003d0: 251c abbb eceb 9cbb 347b edba e350 93bb
000003e0: d1b2 033b cc3c 02b9 ee4e 3d3c 4f01 13bc
000003f0: e6f1 5b3c df01 36bc 7817 38bc 0830 2c3b
-0.0045049153 0.010400136 -0.0036959776 0.005030161 -0.01613312 -0.024601024 -0.022060122 -0.02592697
-0.039048366 -0.028462877 -0.010305321 0.006941057 -0.009467862 0.0016512318 -0.0021025978 -0.0062031397
-0.012151847 -0.008799028 0.014012706 0.017873416 0.03783151 0.0061796126 -0.03485294 -0.026584614
-0.015149504 0.0066159796 -0.0016840472 0.0057524582 -0.009213413 -0.016278716 -0.01091892 -0.015333477
0.041001774 0.07390289 0.050896894 0.048512563 -0.003943675 -0.027856922 -0.016072158 -0.009523352
-0.0042554545 -0.0265399 -0.034373745 -0.031358123 -0.003957542 0.050782014 0.0947651 0.06751192
0.06374301 0.054728344 0.005629764 -0.01856486 0.00022656242 -0.026641572 -0.031778276 -0.04243466
-0.025471792 0.017513685 -0.009876504 0.051544588 0.09358354 0.117047146 0.043315127 0.027102912
-0.016900605 0.005794724 -0.02670485 0.018745806 -0.053565226 -0.0032753237 -0.050078515 -0.046542097
-0.106347546 -0.01693696 0.03722898 0.06033863 0.06624949 0.0050376016 -0.0031653484 -0.013401003
-0.0026563448 0.0135423085 -0.0080773365 -0.031512138 -0.10994638 -0.16328529 -0.07128234 -0.02002085
0.03231132 0.05631799 0.009659766 0.004998777 0.0019462514 0.013537978 0.017726025 0.0030909458
-0.08385342 -0.15811189 -0.10356135 -0.048497014 -0.012795728 0.037084367 0.020002035 0.009774249
-0.012771032 -0.0016331231 0.016711736 0.039284687 -0.014291721 -0.053082153 -0.08206424 -0.050224688
0.01193761 -0.039555773 -0.00032769996 0.017353768 -0.0074679684 -0.00084540615 -0.002151428 0.035129175
0.019985398 0.064335115 -0.011431726 -0.043891296 -0.020291679 -0.027718768 -0.025076257 -0.033103403
-0.010126658 -0.010252132 -0.007879892 0.006698408 0.03416372 0.0225941 -0.0037795664 0.040049613
-0.016113069 0.020981152 -0.0062678284 -0.029929696 -0.034396987 0.0077618957 -0.0060278373 0.0050808364
-0.008863507 -0.007861801 -0.012137527 0.029348297 0.022253567 0.019365624 -0.002923899 -0.016188297
-0.020724438 -0.015368648 -0.012753152 -0.0060535055 0.0030304126 -0.007956672 -0.0011751498 -0.021169348
-0.0055796853 -0.008415755 -0.026414722 0.0032603454 -0.0008443089 -0.0035015172 0.0032962132 -0.0017150283
-0.005410672 0.0030417948 0.008317396 0.014425427 0.028033122 -0.015561849 -0.0126086 -0.00594355
-0.0011518477 0.013064264 -0.0062170806 0.0009305342 -0.004745068 0.0054079825 -0.009654176 -0.0002912634
-0.012935059 -0.012823114 -0.008749171 -0.023900995 -0.0048015905 -0.0014567187 -0.0015587875 -0.011563874
0.016673274 -0.0063216067 -0.0054679126 -0.005112082 0.016129626 -0.0016290323 0.01394391 0.025832007
-0.0122707505 0.0045161215 -0.01877633 0.016026068 -0.020121017 -0.011123745 -0.02339135 -0.005759646
-0.008578784 -0.010556289 -0.010452297 0.011296672 0.01090594 0.006582391 -0.013042731 0.026082056
0.032355662 0.004620928 -0.0006983994 -0.017575959 0.0003720823 0.004993095 0.008387745 0.0042543826
0.01768755 0.01694734 -0.007170074 0.007675794 -0.001394716 0.016347585 -0.031840306 0.007930358
-0.013097521 0.009270028 -0.009291751 -0.011211611 0.0030758854 0.0028636102 -0.011721133 -0.0057455315
-0.0112912 0.003241308 -0.019262439 -0.009476606 -0.005221861 -0.0047888663 -0.0018118382 -0.0044957264
0.0020095597 -0.00012420415 0.011554463 -0.00897248 0.013424372 -0.011108845 -0.011236064 0.0026273746

bias f4 [20]
00000000: 25bc bebc 98bf 133d a631 3fba e10c 13bc
00000010: f4da 2fbc 4039 72ba fbd1 38bc 1071 e43c
00000020: 3e82 84bc 749e efba 1afc 33bc e9de 0d3d
00000030: 0db4 093c 76ea bc3b c8b0 73bc 771c 0b3d
00000040: c1d7 8ebc 1398 863c 91fa 51bb e9c8 a3bb
-0.023283074 0.03607139 -0.000729347 -0.008975239 -0.010733355 -0.00092400983 -0.011280532 0.027885944
-0.016175386 -0.0018281476 -0.010985399 0.03463641 0.008404744 0.0057652546 -0.014873691 0.033962693
-0.017436864 0.016429937 -0.0032040218 -0.0049983156
