mnist_model_fully_connected.pt (torch, 905071 bytes, 8 tensors)

weight f4 [32, 1, 3, 3]
0	0x3e96604c	0.29370344
1	0xbdabde66	-0.083920285
2	0xbf043bce	-0.51653755
3	0x3e00ffda	0.125976
4	0x3f0f13cd	0.5588959
5	0x3ed47630	0.4149642
6	0xbed57189	-0.41688183
7	0x3edc5e49	0.43040684
8	0x3e6af157	0.22943626
9	0xbedc8f49	-0.43078068
10	0x3eae2d8f	0.34019133
11	0x3e137ff9	0.14404286
12	0xbdd81148	-0.10550171
13	0x3e5dfa5a	0.21677533
14	0x3e956fbd	0.29186812
15	0xbe4e008b	-0.20117395
16	0x3eb59a6b	0.35469374
17	0x3ec937dc	0.3930043
18	0xbe9b991c	-0.3039025
19	0xbc71df63	-0.014762732
20	0xbdc20c1c	-0.09474966
21	0xbea0ceb9	-0.31407717
22	0xbe81f83a	-0.25384694
23	0xbd29b89d	-0.041435827
24	0xbe7b227b	-0.24524872
25	0x3e28a03b	0.16467373
26	0x3e7bda47	0.24594985
27	0xbe196b9f	-0.1498246
28	0xbe52ef5a	-0.20599118
29	0x3d321795	0.04347952
30	0x3d890b4d	0.066916086
31	0x3e5956db	0.21224539
32	0x3c55958b	0.013036142
33	0xbe69428c	-0.22779292
34	0x3ca219b4	0.019787647
35	0x3e9513c1	0.29116634
36	0x3e5e8ee0	0.2173419
37	0x3ebe424e	0.3715996
38	0xbcba3f10	-0.022735149
39	0xbd820361	-0.06348301
40	0xbcad40b7	-0.021149023
41	0xbedc3aa7	-0.43013498
42	0x3ec1c75b	0.3784741
43	0x3c3235b9	0.010877066
44	0x3b7a7b12	0.0038220328
45	0x3da5ca50	0.08095229
46	0xbea2bd85	-0.31785217
47	0xbe08c5b4	-0.13356668
48	0x3e16a98c	0.14713115
49	0xbee19c3d	-0.44064513
50	0xbeaa6e25	-0.3328716
51	0x3f023213	0.5085766
52	0x3ec54335	0.38527837
53	0x3ea1a96c	0.3157457
54	0xbe4d4c3c	-0.20048612
55	0xbed276b0	-0.41106176
56	0xbe510ba7	-0.20414601
57	0xbe7048e3	-0.23465304
58	0xbd9f650a	-0.077829435
59	0x3ee41af8	0.44551826
60	0x3ede3233	0.43397674
61	0x3ecc2708	0.39873528
62	0xbe41b7f8	-0.18917835
63	0x3dff9076	0.124787256
64	0xbe8b5cce	-0.27219242
65	0xbe2c435f	-0.16822575
66	0x3e88f44e	0.2674889
67	0xbdc73395	-0.09726635
68	0x3e05f319	0.13081016
69	0x3e5b0f8f	0.21392654
70	0xbd68ecc6	-0.05686643
71	0x3e22c1cc	0.1589424
72	0x3ed67a6b	0.41890272
73	0xbdd5938d	-0.10428534
74	0xbf1cd4bf	-0.61262125
75	0x3e659416	0.22419772
76	0x3e8be739	0.27324846
77	0x3e205b95	0.15659936
78	0x3d2d4b47	0.04230812
79	0x3e63e6eb	0.22256057
80	0x3e69c987	0.22830783
81	0xbe4931e9	-0.19647945
82	0x3d889700	0.06669426
83	0xbe42a2eb	-0.19007461
84	0x3e0f3c88	0.13987935
85	0x3d8030ea	0.062593296
86	0xbecfd210	-0.40589952
87	0x3eee3010	0.46521044
88	0x3ee09659	0.43864706
89	0xbe884f94	-0.26623213
90	0xbd7c0844	-0.06153132
91	0x3e0fbaa8	0.14036047
92	0xbd36ebab	-0.044658344
93	0xbd63b071	-0.05558819
94	0xbe5b42c9	-0.21412195
95	0x3e766abf	0.24064158
96	0xbea0fcfe	-0.31443018
97	0x3e8cce8d	0.27501336
98	0xbd04fd28	-0.03246799
99	0x3d546c1b	0.05186091
100	0xbed345ef	-0.41264293
101	0xbe40bc60	-0.1882186
102	0xbed487f0	-0.41509962
103	0x3d0d324a	0.034471788
104	0xbe9b714a	-0.3035987
105	0xbe574adb	-0.21024649
106	0xbc799c2e	-0.01523499
107	0xbdabb3cc	-0.08383903
108	0xbd88ede6	-0.066860005
109	0xbe3f1b8d	-0.18662854
110	0xbe235b3f	-0.15952776
111	0xbe836e1e	-0.2566995
112	0xbeaa09e1	-0.33210662
113	0xbe6d7a5d	-0.23191209
114	0x3e55f4c1	0.20894147
115	0x3dbc51df	0.09195303
116	0xbe49ca39	-0.19706048
117	0x3e84f13a	0.2596529
118	0xbdaef334	-0.08542481
119	0xbec2b447	-0.38028166
120	0xbe299050	-0.16558957
121	0xbcda2a9e	-0.02663165
122	0xbe523305	-0.20527275
123	0x3edc6225	0.43043628
124	0x3d4f48bb	0.05060647
125	0x3ec888e7	0.39166948
126	0xbe2ba34e	-0.16761515
127	0xbe0e714a	-0.13910404
128	0x3ae145c4	0.001718693
129	0x3ecdae22	0.40171915
130	0x3ea5037d	0.32229224
131	0x3e779a63	0.24179988
132	0xbdc3d67f	-0.09562396
133	0xbdc8bb54	-0.09801355
134	0xbe9a8018	-0.30175853
135	0xbec00ce7	-0.37509844
136	0xbe9c3263	-0.30507192
137	0xbe8b0203	-0.27149972
138	0xbd3c6dca	-0.04600314
139	0x3e77705e	0.24163958
140	0x3e311736	0.1729401
141	0xbe3d8645	-0.18508251
142	0x3e71df7e	0.23620412
143	0x3db14cfc	0.08657262
144	0xbec99489	-0.39371136
145	0x3e883bcc	0.2660812
146	0x3e8bc4d2	0.272986
147	0xbf062b08	-0.5240941
148	0x3e6c92aa	0.23102823
149	0x3e82e598	0.2556579
150	0xbea15dd4	-0.31516898
151	0x3e5cc242	0.21558478
152	0x3c9148f9	0.017734991
153	0xbeb80ab1	-0.35945657
154	0x3eec07d8	0.46099734
155	0x3edb88d7	0.42877838
156	0x3d0b35dc	0.03398691
157	0x3f0a08fb	0.53919953
158	0xbe4f1a00	-0.20224762
159	0x3efedb38	0.49776626
160	0x3eebe3ba	0.4607218
161	0xbf035ff4	-0.5131829
162	0x3f0d9002	0.55297863
163	0x3e36f3d1	0.17866446
164	0x3ec47ea8	0.3837788
165	0xbe566512	-0.20936993
166	0x3eab3804	0.33441174
167	0xbe5420c9	-0.20715632
168	0xbf0ad0f1	-0.5422507
169	0xbeffcf62	-0.49962908
170	0x3be62ee6	0.0070246337
171	0x3e004205	0.12525184
172	0x3cd700ac	0.026245438
173	0xbb97623c	-0.0046198647
174	0xbe5e5811	-0.21713282
175	0xbe1d0107	-0.15332423
176	0xbea362de	-0.31911367
177	0xbe89af99	-0.26891783
178	0xbe85fa60	-0.26167583
179	0x3e266552	0.16249588
180	0x3eb26919	0.34845808
181	0x3eca7f9c	0.39550483
182	0xbe8c9727	-0.2745907
183	0x3e764789	0.24050726
184	0xbed23741	-0.4105778
185	0xbe894141	-0.26807597
186	0xbd42edc8	-0.047590047
187	0xbe4306b5	-0.19045527
188	0xbe652d7e	-0.22380635
189	0x3e486eba	0.19573489
190	0x3d96f461	0.0737083
191	0xbe9d2666	-0.30693358
192	0x3e9ffd5f	0.31247994
193	0xbe319704	-0.17342764
194	0xbddb59cd	-0.107104875
195	0x3dd7dd9a	0.10540314
196	0x3de4eee0	0.11178374
197	0xbe1ca121	-0.15295841
198	0x3c91bfdc	0.017791681
199	0xbd20a84e	-0.039223008
200	0xbe3d8ba2	-0.18510297
201	0xbe534ba3	-0.20634322
202	0x3e42d2f6	0.19025788
203	0xbe580bf5	-0.21098311
204	0xbe17f241	-0.14838506
205	0x3dad4be3	0.0846174
206	0xbcbe2f71	-0.023215981
207	0xbe9281d9	-0.2861469
208	0x3e84b8ba	0.25922185
209	0xbd55f263	-0.05223311
210	0xbeb69b30	-0.35665274
211	0x3e3f08a3	0.18655638
212	0x3dfff560	0.124979734
213	0xbecd4169	-0.40088966
214	0x3e55e54c	0.20888251
215	0xbb7d6d54	-0.00386699
216	0xbe41d970	-0.18930602
217	0x3e877963	0.26459798
218	0x3e1f9294	0.15583259
219	0x3d1d2017	0.03836068
220	0x3c08511c	0.008320119
221	0x3eae8d44	0.34092152
222	0xbeb7c3e4	-0.3589164
223	0xbe3ad837	-0.18246542
224	0xbd752b59	-0.059855793
225	0xbd682fca	-0.0566862
226	0x3e2fbe59	0.17162456
227	0xbe5d81a5	-0.21631487
228	0x3eaa3080	0.33240128
229	0x3eafc30b	0.34328493
230	0xbd6f39a2	-0.058404572
231	0x3ce8b75d	0.028407747
232	0x3d915d31	0.07097853
233	0x3d977924	0.073961526
234	0xbe58d491	-0.21174838
235	0xbd519906	-0.051171325
236	0xbde7e375	-0.11322681
237	0x3ea601de	0.324233
238	0xbe4ce0e7	-0.20007668
239	0xbeb307b6	-0.3496682
240	0xbd97a8ce	-0.07405244
241	0x3e941e86	0.28929538
242	0x3ee79695	0.45232072
243	0x3e8d96b2	0.27654034
244	0xbc28731e	-0.010281352
245	0xbe6ce836	-0.23135456
246	0x3bfac234	0.0076525453
247	0x3e5768a8	0.21036017
248	0xbe238da7	-0.15972005
249	0xbea23930	-0.31684256
250	0xbc6ad6fd	-0.014333484
251	0xbe4e6744	-0.2015658
252	0xbe7a2902	-0.24429706
253	0xbe949b2a	-0.2902463
254	0x3da67432	0.08127631
255	0xbe5d5e83	-0.21618085

bias f4 [32]
0	0xbd8c38ea	-0.06846793
1	0xbd7bd5cc	-0.06148319
2	0x3ebe6e62	0.3719359
3	0xbe2db1e6	-0.16962394
4	0xbe466c5f	-0.19377278
5	0xbe089e00	-0.13341522
6	0xbce52f84	-0.027976759
7	0xbd8068ea	-0.06270011
8	0xbe0f4628	-0.13991606
9	0x3d59217e	0.053010456
10	0xbe97d452	-0.29654175
11	0x3f2587ac	0.64660144
12	0x3e861a1c	0.26191795
13	0xbc6abaab	-0.014326732
14	0x3ddcba58	0.1077773
15	0x3e831ca0	0.25607777
16	0xbc3c3bc6	-0.0114888605
17	0xbecc9de4	-0.3996421
18	0xbcc365c9	-0.023852246
19	0xbe064979	-0.13113965
20	0x3e964156	0.29346722
21	0xbc985829	-0.018596726
22	0xbdbd3124	-0.092378885
23	0x3e7aed9b	0.24504702
24	0xbd217054	-0.039413765
25	0xbe2bbbf5	-0.16770919
26	0xbb915c3d	-0.0044360445
27	0xbde31bf3	-0.11089315
28	0xbe4dddd9	-0.2010416
29	0xbe320ea8	-0.17388403
30	0xbe4682e5	-0.1938587
31	0x3e6ea27b	0.23304169

weight f4 [64, 32, 3, 3]
0	0xbd87352c	-0.066019386
1	0x3d70e663	0.058813464
2	0x3bd96d07	0.0066353115
3	0x3caebcd7	0.02133028
4	0xbd8c09f4	-0.06837836
5	0xbd88e3bb	-0.06684061
6	0x3caa1513	0.020762002
7	0x3d7ff53e	0.06248974
8	0x3ce78b5f	0.0282647
9	0xbd890519	-0.066904254
10	0x3c194615	0.009355088
11	0x3d8934c7	0.066995196
12	0xbd81bb68	-0.06334573
13	0xba6f73ff	-0.0009134411
14	0xbcd63f08	-0.026153103
15	0x3cd105b8	0.025515422
16	0x3ca66702	0.02031279
17	0xbd36760b	-0.04454617
18	0x3d1c24a4	0.03812088
19	0xbd1a5ac3	-0.037684213
20	0xbd128306	-0.035769485
21	0xbc1bd767	-0.009511805
22	0xbd1a21da	-0.03762994
23	0x3d393adb	0.045222145
24	0xbd3a7a46	-0.045526765
25	0x3cbeb946	0.023281705
26	0xbbdfffff	-0.006835937
27	0x3d4f94d7	0.050679054
28	0xbc21e0fe	-0.0098803025
29	0xbb80a200	-0.003925562
30	0x3d691261	0.056902293
31	0xbd5bda4a	-0.053674974
32	0x3ce71e31	0.028212639
33	0xbc8dff7a	-0.017333735
34	0xbd4b301f	-0.04960644
35	0x3d2a5707	0.041586902
36	0x3c3c5cfd	0.0114967795
37	0xbd229050	-0.03968841
38	0xbcf1c7da	-0.029514242
39	0xbd73fb24	-0.05956568
40	0x3c93704d	0.017997885
41	0xbd27d436	-0.040973864
42	0xbc44fcb3	-0.012023139
43	0xbb94d339	-0.0045417813
44	0x3c89dfa2	0.01683027
45	0x3d39290a	0.045205154
46	0xbd5bd5bf	-0.05367064
47	0xbd5f9f34	-0.054595187
48	0x3d7480c6	0.05969312
49	0x3d97da5b	0.07414695
50	0x3d25c4d9	0.04047093
51	0x3d731ce9	0.059353743
52	0x3d403f1a	0.04693518
53	0x3c9ea880	0.019367456
54	0xbcf84492	-0.030306134
55	0xbc394169	-0.011307099
56	0x3cd8cf61	0.026466073
57	0xbba2b2d4	-0.0049651656
58	0xbd813577	-0.06309026
59	0xbcbb0dd9	-0.022833752
60	0xbbf4dd4e	-0.0074726706
61	0x3d2e6c6f	0.04258388
62	0xbc7b1112	-0.015323894
63	0xbd17f271	-0.037096445
64	0x3ca15d93	0.01969794
65	0x3d358f1d	0.044325937
66	0xbcc65761	-0.024211587
67	0x3d6403f2	0.055667825
68	0x3d26075f	0.040534373
69	0x3ce6d478	0.028177485
70	0x3b980a0f	0.004639871
71	0x3bbc2aac	0.0057423916
72	0xbad4c9d6	-0.0016234468
73	0xbc002526	-0.007821357
74	0x3b88bfd1	0.004173257
75	0xbd8e20d1	-0.06939853
76	0x3c6b93b1	0.014378474
77	0x3c9c516a	0.01908179
78	0x3c96b364	0.018396087
79	0x3cc2b62f	0.023768513
80	0x3b7312f6	0.003709016
81	0xbd1e98c2	-0.0387199
82	0xbc6bd722	-0.014394553
83	0xbbf1be66	-0.0073774336
84	0x3cbe9e7c	0.02326893
85	0xbc7ce520	-0.015435487
86	0xbd4141af	-0.04718178
87	0x3d022cbc	0.031780943
88	0x3cda6f3a	0.026664365
89	0x3d7cde18	0.061735243
90	0x3c9639da	0.018338133
91	0x3d25f734	0.040518954
92	0xbd15e0da	-0.03659139
93	0xbbf0a3bc	-0.0073437374
94	0xbd23f0a4	-0.040024415
95	0xbd67a5b7	-0.056554522
96	0xbb3195d0	-0.0027097352
97	0xbd17f11f	-0.037095185
98	0x3cbcc5e1	0.023043575
99	0x3d50690e	0.050881438
100	0xbd2b6e07	-0.041852977
101	0xbc76bdd0	-0.015059903
102	0xbcc0858e	-0.023501184
103	0x3d2946c6	0.04132726
104	0xbd331e8a	-0.043730296
105	0x3cbe80bc	0.023254745
106	0xbcd5863f	-0.02606499
107	0xbd53102b	-0.05152909
108	0x3d4fff8d	0.05078082
109	0xbce84dee	-0.028357472
110	0xbd62a112	-0.05532939
111	0xbd02fb48	-0.03197792
112	0xbd27ba56	-0.04094919
113	0x3c4c20d3	0.012458998
114	0x3ca33faf	0.019927828
115	0x3d418306	0.047244094
116	0xbd428b1b	-0.047495943
117	0xbc75bbfb	-0.014998431
118	0xbd8702f0	-0.06592357
119	0xbd0410c6	-0.03224256
120	0xbb559f92	-0.0032596332
121	0xbcba4a95	-0.022740642
122	0x3b96a39e	0.0045971414
123	0xbc985d83	-0.018599277
124	0x3c6e30b9	0.014537984
125	0x3cf5d946	0.03001083
126	0x3d023ccb	0.031796258
127	0xbc4cc379	-0.012497776
128	0x3c246f2b	0.01003627
129	0xbd54e302	-0.051974304
130	0xbd4a73dd	-0.049426902
131	0x3d03bd9b	0.032163244
132	0x3d89e84b	0.067337595
133	0x3c4088c9	0.011751362
134	0xbd787e19	-0.06066713
135	0xbd21e2e0	-0.039523005
136	0xbd191967	-0.03737774
137	0x3d061f41	0.03274465
138	0xbbbf7d4c	-0.005843794
139	0xbd5d32f9	-0.05400369
140	0xbd7a10da	-0.061051227
141	0xbce1b3bc	-0.027551524
142	0xbcddb05f	-0.02706164
143	0x3d30a4bf	0.043125864
144	0xbc95e358	-0.018296883
145	0x3d22865d	0.03967892
146	0xbc723367	-0.014782763
147	0xbc318e88	-0.010837205
148	0xbd579800	-0.052635193
149	0xbcfa4421	-0.030550065
150	0xbc605109	-0.013691195
151	0xbd4560ac	-0.048187897
152	0x3c29e679	0.01036989
153	0xbc70e30a	-0.014702568
154	0xbd5c1f25	-0.05374064
155	0xbcbb3a87	-0.022855056
156	0xbc8c3209	-0.017113702
157	0xbd8a7bb0	-0.06761873
158	0xbda23804	-0.079208404
159	0xbc2bcf9b	-0.010486509
160	0xbd61405e	-0.054993026
161	0x3ca8745e	0.0205633
162	0x3cf669b3	0.030079698
163	0x3d1f4b57	0.03889021
164	0x3d30ca7a	0.043161847
165	0xbd884aca	-0.0665489
166	0x3d029e92	0.031889506
167	0x3bc18dd3	0.0059067993
168	0xbd179b3b	-0.037013274
169	0x3cb9d56c	0.022684775
170	0x3cb692de	0.022286829
171	0x3d1a5e90	0.037687838
172	0x3d5a01b0	0.053224266
173	0xbccbd455	-0.024881521
174	0xbd35edc9	-0.044416223
175	0xbc9f293f	-0.019428847
176	0xbd572b1e	-0.052531354
177	0x3d34c0f7	0.044129338
178	0x3c32a5b0	0.010903761
179	0x3cd82d8b	0.026388904
180	0xbd29179b	-0.041282278
181	0x3b4420c8	0.0029926766
182	0xbd705b75	-0.05868097
183	0xbd4f2c6a	-0.050579466
184	0xbceebad8	-0.029141828
185	0xbcc7902d	-0.02436074
186	0xbd901178	-0.07034582
187	0xbd7acce4	-0.061230555
188	0xbd803519	-0.062601276
189	0xbd5bb070	-0.05363506
190	0x3d1d1b7b	0.038356286
191	0xbd1b9d4d	-0.03799181
192	0x3d0e8b3d	0.034800757
193	0x3cbc2fc3	0.022971993
194	0xbcb2c1b8	-0.021820888
195	0xbce9365e	-0.028468307
196	0x3d1007fe	0.035163872
197	0xbd6a20a7	-0.057160046
198	0x3d253cc1	0.040341143
199	0x3c6fd724	0.014638696
200	0x3ca8eef1	0.020621749
201	0x3c42d085	0.011890535
202	0x3d5f547f	0.05452394
203	0x3caf42dd	0.021394188
204	0xbcda70b4	-0.02666507
205	0x3d3986f8	0.04529473
206	0xbc5a1343	-0.013310256
207	0xbc4d95a4	-0.012547884
208	0xbcd8fbd9	-0.026487278
209	0xbccd7959	-0.025082277
210	0xbcdc81b1	-0.02691731
211	0xbc9859b4	-0.018597461
212	0xbcb85d5c	-0.022505455
213	0xbd8ed61a	-0.069744304
214	0xbc918860	-0.017765224
215	0x3ae8e01d	0.0017766986
216	0xbd3438bf	-0.04399943
217	0x3c2eef23	0.010677132
218	0x3c74a21c	0.014931228
219	0xbc6c7de4	-0.014434312
220	0x3b15abd2	0.0022838009
221	0x3d056c04	0.032573715
222	0x3d57ab15	0.05265339
223	0x3be37b70	0.006942205
224	0xbd0ee460	-0.034885764
225	0xbda2f56a	-0.07956965
226	0x3cdb3ba2	0.026761834
227	0x3d638daf	0.055555042
228	0x3d2ff756	0.042960487
229	0xbcb807a9	-0.02246459
230	0x3b9d62ce	0.004803038
231	0x3d8bfebe	0.068356976
232	0xbd13b2cf	-0.036059197
233	0x3d785c33	0.060634803
234	0xbd804cb4	-0.0626463
235	0xbd4940a8	-0.049133927
236	0x3c886649	0.016650336
237	0x3d6d65f9	0.057958577
238	0xbd37d926	-0.044884823
239	0x3c56c8d2	0.013109403
240	0x3d820c23	0.06349971
241	0x3d95affb	0.07308956
242	0x3c5153f5	0.012776365
243	0x3af4d978	0.0018680533
244	0x3bcb53fc	0.00620508
245	0xbce83762	-0.028346721
246	0xbc11fb2a	-0.00890998
247	0xbcd2f9dd	-0.02575391
248	0x3c742095	0.014900346
249	0x3cb7c13f	0.022431014
250	0x3d0f1a82	0.03493739
251	0xbd501360	-0.050799727
252	0x3c20f569	0.009824135
253	0xbd5b26ce	-0.053503804
254	0x3d491f52	0.049102135
255	0x3d1ac6a3	0.03778709

bias f4 [64]
0	0x3d200584	0.03906776
1	0x3cfb751f	0.030695496
2	0x3d2330cf	0.03984147
3	0x3cefb7a0	0.029262364
4	0x3d34a7e5	0.04410543
5	0x3c282afa	0.010264153
6	0xbd0ee8fa	-0.034890153
7	0xbe47b3fb	-0.19502251
8	0xbca21278	-0.019784197
9	0xbe0076d5	-0.12545331
10	0x3c457e9c	0.012054112
11	0x3d0f80d2	0.035034962
12	0x3cc830e6	0.02443738
13	0x3ac70c39	0.0015186138
14	0xbd1daa70	-0.03849262
15	0xbd5aa979	-0.053384278
16	0xbde41e1f	-0.11138558
17	0x3ccfdff4	0.025375344
18	0xbc105b91	-0.008810894
19	0xbd17f927	-0.037102845
20	0xbd9ad7d2	-0.07560696
21	0xbd0ceddc	-0.034406528
22	0x3ccc858c	0.024966024
23	0xbc09b2c8	-0.008404441
24	0xbd1302d0	-0.035891354
25	0xbc669c51	-0.014075355
26	0xbda58e6f	-0.08083808
27	0xbdaccf06	-0.08437924
28	0xbdc6f4d3	-0.09714665
29	0x3cfe561e	0.031046923
30	0x3bb1de41	0.005428106
31	0xbdeb8d23	-0.11501529
32	0xbd6d86fe	-0.057990067
33	0xbe38ac1e	-0.18034407
34	0xbc3f71ad	-0.011684817
35	0xbd138b45	-0.03602149
36	0xbce5abc8	-0.028036013
37	0x3cd8c7b3	0.026462412
38	0x3cc3cb38	0.023900613
39	0xbc86ba9d	-0.016446406
40	0xbd75e7a7	-0.060035374
41	0xbdd6d83c	-0.10490462
42	0xbe01a3e8	-0.12660182
43	0xbd101325	-0.035174508
44	0xbd094614	-0.033514097
45	0xbc7954e0	-0.01521799
46	0x3d8c4cf7	0.068506174
47	0x3bf0f0ea	0.007352938
48	0xbae6b534	-0.001760161
49	0xbdc48f31	-0.09597624
50	0x3c9cde4a	0.019148964
51	0xbcd8dcdb	-0.0264725
52	0xbc4c76b9	-0.012479478
53	0xbdccc632	-0.0999874
54	0xbdeb81e6	-0.114993855
55	0xbc534596	-0.012895009
56	0xbcad823f	-0.02118027
57	0xbda18ac7	-0.07887798
58	0x3c871053	0.016487276
59	0xbe2124e9	-0.15736736
60	0xbcf18527	-0.029482437
61	0xbe104808	-0.14089978
62	0x3959d364	0.00020773482
63	0x3c494f16	0.012286922

weight f4 [128, 1600]
0	0xbcc0f075	-0.023552159
1	0xbc25f245	-0.010128562
2	0x3d2bbadb	0.041926246
3	0x3d01e80d	0.03171544
4	0x3cba483f	0.022739528
5	0x3c01d6de	0.0079247635
6	0xbb93339f	-0.0044922377
7	0xbb4519b9	-0.0030075146
8	0x3bda2c61	0.0066581224
9	0x3bbf356e	0.0058352267
10	0xbc8894e8	-0.016672567
11	0xbca94a16	-0.02066521
12	0xbbf02e0b	-0.0073297075
13	0x3c032e7c	0.008006688
14	0x3c908482	0.01764131
15	0x3b9e9b4e	0.004840291
16	0x3d020ca7	0.031750347
17	0x3c904121	0.01760918
18	0x3a59c87b	0.0008307767
19	0x3c49fd0a	0.012328396
20	0xbc129d6d	-0.008948666
21	0xbbfab454	-0.0076508913
22	0x3c3c95f3	0.01151036
23	0xbbe03917	-0.006842743
24	0x3bf15010	0.0073642805
25	0xbc90c83d	-0.017673606
26	0x3b7e23ad	0.0038778589
27	0x3b2661ed	0.0025387958
28	0x3c8f3d85	0.01748539
29	0xbcc6ac3e	-0.024252053
30	0xbcb1fc1a	-0.021726657
31	0x3a9943c5	0.001169317
32	0x3c466f84	0.012111548
33	0x3ca9c358	0.02072303
34	0x3b101749	0.0021986535
35	0xbbb67947	-0.0055686566
36	0xbcc2faf3	-0.023801303
37	0x3ccff6fa	0.025386322
38	0x3cdf42d2	0.027253542
39	0x3cb29614	0.021800078
40	0xbca93f61	-0.020660104
41	0x3c0d22a3	0.008614215
42	0x3c3c0a9f	0.011477142
43	0xbb8b0f3d	-0.00424376
44	0x3b95ee03	0.0045754923
45	0x3c55f34b	0.013058494
46	0xbaf6b275	-0.0018821495
47	0x3cab907a	0.020942915
48	0x3c504515	0.012711783
49	0xbcd80b7b	-0.026372662
50	0xbbf507e5	-0.0074777477
51	0xbac84a2f	-0.0015280897
52	0x3ce5d974	0.028057791
53	0xbc8ffb40	-0.01757586
54	0x39f0aec8	0.0004590659
55	0xbc8db5ef	-0.017298667
56	0xbbc2f96d	-0.005950144
57	0x3cb9b319	0.022668408
58	0x3b1ea874	0.0024209293
59	0xb947b97e	-0.0001904722
60	0xbc144707	-0.009050137
61	0xbc56f3cd	-0.01311965
62	0xbc2371ea	-0.00997589
63	0x3b551ce7	0.0032518448
64	0xbcb1482f	-0.021640865
65	0xbc7ebed3	-0.015548426
66	0x3b98dd9c	0.00466509
67	0xbc5af777	-0.013364664
68	0xba82c652	-0.0009977317
69	0xbca86698	-0.020556733
70	0x3cb060e9	0.021530585
71	0xbc587166	-0.01321063
72	0x3c0b5958	0.008505188
73	0xbc864451	-0.016389998
74	0xbd00983b	-0.03139518
75	0xbcab96fc	-0.020946018
76	0xbc925e6d	-0.017867291
77	0xbc8df74c	-0.017329834
78	0xbd335078	-0.043777913
79	0xba1d8f4b	-0.0006010427
80	0x3ca28ec2	0.019843463
81	0xbcc8c650	-0.024508625
82	0x3c8ed199	0.017433928
83	0xbd0161ac	-0.031587288
84	0x3c458d18	0.012057565
85	0xbb2450b2	-0.0025072512
86	0x3ccc585f	0.024944482
87	0x3c9334ee	0.017969575
88	0x3bf43e41	0.0074537103
89	0xbcb3e2b4	-0.021958686
90	0xbad1bc19	-0.0016001492
91	0xbd34e550	-0.044164002
92	0xbba7863b	-0.005112437
93	0x3c1f2292	0.009712832
94	0xbc19ec0e	-0.009394659
95	0x3cb9b73e	0.022670384
96	0xbabf26f0	-0.0014583748
97	0xbbc2d83d	-0.005946188
98	0x3c8fa2a0	0.0175336
99	0x3c61560c	0.013753425
100	0x3c8d5b12	0.01725534
101	0xba944232	-0.0011311232
102	0x3d0f5fd0	0.035003483
103	0x3d8a3939	0.067491956
104	0x3c9ad5e7	0.018900825
105	0xbca7f0b5	-0.02050052
106	0x3bd13d81	0.0063855057
107	0x3d1deda9	0.03855673
108	0x3cf9ff16	0.030517142
109	0xbcd660ec	-0.026169263
110	0xbc00ca9b	-0.007860805
111	0xbcddd57a	-0.027079333
112	0xbd1319e9	-0.03591338
113	0xbc6fca96	-0.014635703
114	0xbc0fb371	-0.0087708095
115	0xbc0c0c69	-0.008547881
116	0x3a1f0667	0.00060663227
117	0x3c3b882b	0.011446039
118	0x3b925ea7	0.00446685
119	0xbcdce08d	-0.026962543
120	0x3c8b7144	0.017021783
121	0x3d59e5f0	0.0531978
122	0x3d22374b	0.039603513
123	0x3c6fd79f	0.01463881
124	0xbcec429e	-0.02884036
125	0xbc19778c	-0.009366881
126	0xbb079b84	-0.002069206
127	0x3d0828c2	0.033241995
128	0x3c5ffb12	0.0136707
129	0xbcafdce5	-0.021467635
130	0xbcd88a87	-0.026433242
131	0x3bfe6d6b	0.0077645085
132	0x3cb53702	0.022120956
133	0xbaf465f4	-0.0018646107
134	0x3b045b59	0.002019605
135	0xbd019e12	-0.03164489
136	0xbb081233	-0.00207628
137	0x3c6af784	0.014341239
138	0x3bb2b356	0.0054535074
139	0xbc3e65db	-0.011620964
140	0xbc377c56	-0.011199078
141	0x3d21fdf9	0.039548848
142	0xbb1b3f20	-0.0023688748
143	0xbc755d33	-0.014975834
144	0xbc533677	-0.012891403
145	0x3b9d9010	0.0048084334
146	0x3c74198b	0.014898668
147	0xbbe2c189	-0.006920044
148	0x3b8c3bf0	0.004279606
149	0xbbd02f38	-0.006353285
150	0xbc8400b3	-0.016113615
151	0xb91f9474	-0.00015218725
152	0xbcc45d5a	-0.023970295
153	0x3c058f0f	0.008151784
154	0x3c556ae3	0.013025972
155	0x3cae088c	0.02124431
156	0x3c37254c	0.011178326
157	0x3d0aae4e	0.033857636
158	0x3c16a721	0.00919512
159	0x3b9f4dae	0.004861555
160	0xbbfd764d	-0.00773505
161	0x3cd76420	0.02629286
162	0x3be048de	0.006844624
163	0xbbc857bd	-0.006113975
164	0xbbfd181d	-0.007723822
165	0xbc34414d	-0.011001897
166	0xbcad7773	-0.021175122
167	0xbbdd0572	-0.006745034
168	0xbcd4cac3	-0.02597559
169	0x3bda9c50	0.006671466
170	0x3b224b4e	0.0024764123
171	0xbc426dea	-0.011867026
172	0x3c08ba1f	0.008345156
173	0x3c62958f	0.013829603
174	0xbc57fa67	-0.013182259
175	0x3a6f1b52	0.00091211975
176	0x3ca0db28	0.019635752
177	0x3d4adba4	0.049525872
178	0x3db4a766	0.08820991
179	0x3bc2ceff	0.005945086
180	0x3c27bf0c	0.01023842
181	0x3b61065f	0.0034336073
182	0xbc072d5d	-0.008250562
183	0x3c245adf	0.010031431
184	0x3ca6159b	0.020273974
185	0x3c8d2715	0.01723055
186	0xbcbe1aee	-0.0232062
187	0xbd10219f	-0.035188314
188	0xbce8ea4b	-0.028432032
189	0x3b480ab3	0.0030523955
190	0xbca852eb	-0.02054735
191	0xbbcc0628	-0.00622632
192	0xbce262dd	-0.027635032
193	0x3b8a8daa	0.0042283135
194	0x3cfc995d	0.030834848
195	0xbab25491	-0.0013605525
196	0x3ac279c7	0.0014837318
197	0xbd139f76	-0.036040746
198	0x3c51cec3	0.0128056435
199	0x3c47cc61	0.012194724
200	0x3c5e0eaa	0.013553301
201	0xbcb6936c	-0.022287093
202	0x3cd31ec0	0.025771499
203	0x3cabd49b	0.020975402
204	0x3cd86a1b	0.026417783
205	0x3c530b30	0.012881085
206	0x3c62289d	0.013803628
207	0xbcd51324	-0.026010104
208	0xbc5714bb	-0.013127501
209	0xbc9696ba	-0.018382419
210	0xbb7edef3	-0.0038890212
211	0xbc9ba0a5	-0.0189975
212	0xbc7882df	-0.015167921
213	0xbcb5f4f8	-0.022211537
214	0x3c6613f7	0.014042846
215	0x3c21b78d	0.009870422
216	0x3d1cc636	0.038274966
217	0x3d02d750	0.03194362
218	0x3ca20d73	0.019781804
219	0xbc963440	-0.018335462
220	0x3bc2cb81	0.0059446697
221	0x3d096426	0.033542775
222	0x3bd39705	0.006457212
223	0x3c7b45cb	0.015336464
224	0xbc72407a	-0.01478588
225	0xbce79347	-0.02826847
226	0x3cd92a78	0.026509508
227	0x3c91726f	0.017754762
228	0x3d9f1efb	0.07769581
229	0x3cfe91ad	0.031075323
230	0xbccc2a9b	-0.02492266
231	0x3ccaab05	0.024739752
232	0xbc34e664	-0.0110412575
233	0x3d03438d	0.032046843
234	0x3c7f263a	0.015573079
235	0xbc4a63d8	-0.012352906
236	0xbca71c1b	-0.020399144
237	0xbd0b8063	-0.034057986
238	0x3c0ec706	0.008714443
239	0xbc67a7df	-0.014139145
240	0x3bfe1cd4	0.0077549014
241	0x3c016425	0.0078974115
242	0x3d354d5a	0.04426322
243	0x3bec0851	0.00720314
244	0xbd254e5d	-0.040357936
245	0x3c651b7d	0.0139836045
246	0xbc712561	-0.0147183845
247	0xbc6de018	-0.01451876
248	0xbcb4d7e7	-0.022075607
249	0xbc91d37d	-0.01780104
250	0xbc125e24	-0.008933578
251	0xbc4af170	-0.012386665
252	0xbcfa27b9	-0.03053652
253	0xbb8a15fd	-0.004214047
254	0x3bfbed16	0.007688175
255	0xbbaf4994	-0.0053493474

bias f4 [128]
0	0xbd1d4f52	-0.038405724
1	0x3cedeefd	0.029044623
2	0xbc4652a5	-0.012104665
3	0x3c9e22ab	0.01930364
4	0xbcf06009	-0.029342668
5	0xbd06385f	-0.032768603
6	0xbc8e9a11	-0.017407449
7	0xbca3ed47	-0.020010604
8	0xbb8e0fc4	-0.0043353755
9	0x3c9b909d	0.018989855
10	0xbc3db6a2	-0.011579188
11	0x3c9303b5	0.017946104
12	0x3ce5bded	0.028044665
13	0x3c678089	0.014129766
14	0xbc66568e	-0.014058722
15	0xbcfa905a	-0.03058641
16	0xbd0c6d1b	-0.03428374
17	0xbb4d368b	-0.0031313028
18	0xbbe254da	-0.0069070878
19	0xbc8892c2	-0.016671542
20	0x3b15ae12	0.002283935
21	0x3d29daf0	0.04146856
22	0xbab6b37a	-0.0013938986
23	0xbd0269fd	-0.03183936
24	0xbc8295f3	-0.015940642
25	0xbc2065d6	-0.009789905
26	0x3c3a7a35	0.0113816755
27	0xb8031472	-3.1251875e-05
28	0xbc80b699	-0.01571207
29	0x3c049ff2	0.008094775
30	0x3c8ed203	0.017434126
31	0x3c40bfc6	0.011764472
32	0xbb9d5a0f	-0.0048019956
33	0xbc86c021	-0.016449036
34	0xbca8b35b	-0.020593336
35	0xbc06d9b9	-0.00823062
36	0x3b09fd85	0.002105565
37	0x3cc0c5f2	0.023531888
38	0x3d10cf20	0.03535378
39	0xbbbbbb8b	-0.005729144
40	0x3d32ad6d	0.043622423
41	0xbca35645	-0.019938597
42	0xbc9bf2a8	-0.019036606
43	0x3d1869d1	0.03721029
44	0x3ba591ff	0.0050528045
45	0x3c32ab84	0.01090515
46	0xbbbf8739	-0.005844977
47	0x3ccad355	0.024758974
48	0x3c5ab510	0.013348833
49	0x39d1c870	0.00040012924
50	0xbc2f1d26	-0.010688102
51	0x3ab9c81c	0.0014174017
52	0xbd0bc9b0	-0.03412789
53	0x3cabd783	0.020976787
54	0x3c47030d	0.012146723
55	0xb94b0a38	-0.00019363395
56	0x3b220604	0.0024722824
57	0xbc9bc026	-0.019012522
58	0x3ca974a9	0.02068551
59	0x3c0f942f	0.008763357
60	0x3ce173d1	0.027521046
61	0xbc147096	-0.009060046
62	0x3c90516c	0.01761695
63	0x39340fa0	0.00017171958
64	0xbc89f424	-0.016840048
65	0xbc4d2fb6	-0.012523582
66	0xbcd148bb	-0.025547376
67	0xbba99801	-0.005175591
68	0xbce0e5f2	-0.027453396
69	0x39c18949	0.00036914114
70	0x3d35b384	0.044360653
71	0xbd0761c7	-0.033052232
72	0xbd387d1a	-0.04504118
73	0x3d205d2c	0.039151356
74	0xbc45de78	-0.012076966
75	0xbd3a795d	-0.045525897
76	0x3cbfaca5	0.023397753
77	0xbba35672	-0.0049846703
78	0xbcd15866	-0.025554847
79	0x3d061965	0.03273906
80	0x3bbd6c97	0.005780767
81	0xbc8620b8	-0.016373023
82	0x3c194623	0.009355101
83	0x3cd283af	0.025697557
84	0x3ca06406	0.019578945
85	0x3c823b82	0.015897516
86	0xbbe3929a	-0.0069449665
87	0x3cce0a3f	0.02515137
88	0xbc65a5b2	-0.014016556
89	0xbba5d534	-0.005060816
90	0x3cf4a2f2	0.029862855
91	0x3bafdd6f	0.005366973
92	0x3b4065c0	0.0029357523
93	0xbc118af2	-0.008883225
94	0x3c7fd5af	0.015614911
95	0x3ca8a3f8	0.020585999
96	0x3c837033	0.016044712
97	0xba968b04	-0.0011485522
98	0xbaedf10c	-0.0018153503
99	0x3c42f56f	0.011899336
100	0xbc69a6b7	-0.014260939
101	0xbcd60040	-0.026123166
102	0xbb070d9d	-0.002060748
103	0x3d19e5e6	0.037572764
104	0x3cf1d159	0.02951877
105	0x3c5f8749	0.013643094
106	0xbad2d8ef	-0.001608638
107	0x3c42e568	0.011895515
108	0x3b814b57	0.003945749
109	0x3ce665db	0.02812474
110	0x3ca63e03	0.020293241
111	0x3c96856d	0.01837417
112	0x38ed11b8	0.00011304341
113	0xbc849268	-0.016183093
114	0x3c3e0464	0.0115977265
115	0x3c53ffe6	0.012939429
116	0xbd186321	-0.03720391
117	0x3c9e4e50	0.019324452
118	0xbc5c2254	-0.013435919
119	0xbbb72fec	-0.0055904295
120	0x3bcf92cd	0.0063346387
121	0x3b03c7eb	0.0020108174
122	0x3873c5aa	5.8119804e-05
123	0xbcdc476e	-0.02688953
124	0xbcf07a12	-0.029355083
125	0xbcf50add	-0.029912407
126	0x3ce822e1	0.028336944
127	0xbab59176	-0.0013852555

weight f4 [10, 128]
0	0x3e07530f	0.13215278
1	0xbe059178	-0.13043773
2	0xbdadc50a	-0.08484848
3	0xbd1dd497	-0.03853282
4	0xbdeb56c3	-0.11491158
5	0xbe5b7d90	-0.21434617
6	0xbdf3b4bc	-0.11899707
7	0xbe8e3be2	-0.27780062
8	0xbd7af442	-0.0612681
9	0x3d949b42	0.072561756
10	0xbdfe64cd	-0.1242157
11	0xbe101726	-0.1407133
12	0xbde04e65	-0.109524526
13	0xbe421807	-0.18954478
14	0x3da71718	0.08158702
15	0xbe2b8251	-0.1674893
16	0xbd48a7b4	-0.04898806
17	0x3d00387e	0.031303875
18	0xbe1920ba	-0.1495389
19	0xbdb37bc8	-0.08763844
20	0xbdf080b5	-0.11743299
21	0x3d8152b6	0.06314604
22	0x3e027657	0.12740456
23	0x3be701c2	0.00704977
24	0x3e4c1f26	0.19933757
25	0xbe422112	-0.18957928
26	0xbdd49c15	-0.10381333
27	0xbdd0ff10	-0.10204899
28	0xbdf5b2c8	-0.119969904
29	0x3b89ec98	0.0042091124
30	0x3c49251e	0.012276916
31	0xbde08f1a	-0.109647945
32	0xbe165a6f	-0.14682935
33	0x3e019988	0.12656224
34	0xbdad0465	-0.08448104
35	0xbe543dc8	-0.20726693
36	0x3d7b6bd8	0.061382145
37	0xbe0b8043	-0.13623147
38	0xbdadfddf	-0.08495688
39	0xbe1a1777	-0.15048014
40	0xbd85cec5	-0.06533579
41	0x3e3b1de6	0.18273124
42	0x3c85716b	0.016289433
43	0xbd235984	-0.03988029
44	0x3dd95968	0.10612756
45	0x3dcd51e0	0.10025382
46	0x3e1e79d2	0.15476158
47	0xbe42c9cb	-0.1902229
48	0xbdabe288	-0.08392817
49	0xbdc09e1f	-0.09405159
50	0xbc632baa	-0.013865391
51	0xbd9f51c2	-0.07779266
52	0xbdca0548	-0.098642886
53	0x3e7403dd	0.23829599
54	0x3e5efeba	0.21776858
55	0xbd240373	-0.040042352
56	0xbe0204be	-0.12697122
57	0xbdedb29d	-0.116063334
58	0x3de054d8	0.10953683
59	0xbe32a634	-0.17446214
60	0x3e408187	0.18799411
61	0xbe304eb4	-0.17217523
62	0xbdc7e1a8	-0.097598374
63	0xbdb9fe52	-0.09081711
64	0xbe376a67	-0.17911683
65	0xbc4598d5	-0.012060364
66	0xbcde40bd	-0.027130479
67	0xbe009ac0	-0.12559032
68	0xbe48b58c	-0.19600505
69	0xbca10d88	-0.019659773
70	0xbdb9d2a5	-0.090733804
71	0x3d383f64	0.04498233
72	0x3cbee181	0.023300888
73	0x3ce30222	0.027710978
74	0xbe40ccdb	-0.18828146
75	0xbd6e630f	-0.05819994
76	0xbc953ba5	-0.018216917
77	0xbd8d3a99	-0.06895942
78	0x3df0c64c	0.11756572
79	0xbe13584f	-0.14389156
80	0x3dbe4ded	0.09292207
81	0xbe148f4e	-0.14507791
82	0xbda55d9f	-0.080744974
83	0xbe1d1057	-0.15338264
84	0x3e4d8b8a	0.20072761
85	0xbca7270d	-0.020404363
86	0x3be43361	0.0069641327
87	0x3d9241a1	0.07141424
88	0x3d9c96bc	0.07645938
89	0xbdd870f8	-0.10568422
90	0x3e0382c1	0.12842847
91	0x3cb0414d	0.021515513
92	0xbe4db9bd	-0.20090385
93	0xbe1c81a9	-0.15283836
94	0x3e14abf5	0.14518721
95	0x3d31fbe1	0.0434531
96	0x3e416045	0.1888438
97	0x3de21d9d	0.110408045
98	0xbe06e2b5	-0.1317242
99	0xbb4b487c	-0.0031018546
100	0xbe3f7f0b	-0.18700807
101	0xbde85f93	-0.11346354
102	0x3e1f6f7b	0.1556987
103	0x3e4de935	0.20108493
104	0x3c965f54	0.018356003
105	0x3d8361ec	0.064151615
106	0xbd3e463b	-0.046453696
107	0xbd8f8a2a	-0.070087746
108	0xbd94797d	-0.072497346
109	0xbdcd118c	-0.100131124
110	0xbdcd7921	-0.10032869
111	0xbe0be567	-0.13661729
112	0x3c5c7a89	0.013456949
113	0xbd39ed69	-0.045392428
114	0xbcb889fe	-0.022526737
115	0xbc1bce2d	-0.009509605
116	0xbe0dc77c	-0.13845628
117	0x3ac93262	0.0015350098
118	0x3d24e93a	0.040261485
119	0xbdf7808d	-0.12085066
120	0xbd3ab243	-0.04558016
121	0x3e6c9168	0.23102343
122	0x3e2fb116	0.17157397
123	0x3d92a418	0.07160205
124	0x3d91ebdb	0.07125064
125	0x3ce3e80e	0.027820613
126	0xbe3b2dfb	-0.18279259
127	0x3d2c185b	0.042015415
128	0xbe5a2e9b	-0.21306841
129	0x3d653e6b	0.05596773
130	0xbd03e6cc	-0.032202527
131	0xbe1ffa1e	-0.15622756
132	0x3da5b65f	0.08091425
133	0xbd75f1fa	-0.06004522
134	0x3dcd9ec8	0.10040051
135	0xbd18a6f1	-0.037268583
136	0x3e58b80a	0.21163955
137	0x3de8854e	0.11353551
138	0x3cca325f	0.024682222
139	0x3d61b931	0.055108253
140	0x3e0fc49d	0.14039846
141	0x3dbc3309	0.09189422
142	0xbdc8c985	-0.09804062
143	0xbe016f2b	-0.12640063
144	0xbe388792	-0.18020466
145	0x3d2917d0	0.041282475
146	0xbce01763	-0.027354902
147	0x3e002228	0.1251303
148	0x3c4d1fc1	0.012519778
149	0x3c669cc1	0.014075459
150	0xbcc8ac24	-0.024496146
151	0xbdfd1d45	-0.12359098
152	0xbd804535	-0.062632
153	0x3e01d371	0.12678315
154	0x3e196987	0.14981662
155	0x3e05b9df	0.13059185
156	0xbd8084f3	-0.06275358
157	0x3dfd3f96	0.12365644
158	0xbc9601a7	-0.018311335
159	0x3e5222f3	0.20521145
160	0x3d530a10	0.05152327
161	0xbe4d4090	-0.2004416
162	0xbe0c88a6	-0.13724002
163	0xbe0e133c	-0.13874525
164	0x3d9d4df0	0.07680881
165	0x3e221458	0.15828073
166	0x3ea3a16d	0.31959096
167	0x3e046b4f	0.1293156
168	0x3da82a94	0.08211246
169	0xbd92fa43	-0.0717664
170	0x3dba5d29	0.090998
171	0x3e85a0cb	0.26099238
172	0x3da8677d	0.08222864
173	0xbe65f331	-0.22456051
174	0xbe16e355	-0.14735158
175	0x3deceb39	0.11568303
176	0x3e3ac4ae	0.1823909
177	0x3e022c78	0.12712276
178	0x3d745801	0.05965424
179	0xbe23c72a	-0.15993944
180	0xbe6efa35	-0.23337634
181	0x3d08140d	0.033222247
182	0x3e33200c	0.17492694
183	0x3d077e4a	0.033079423
184	0x3e83d3c5	0.25747505
185	0xbe5c14a6	-0.21492252
186	0xbdd1da78	-0.10246748
187	0x3ddd687c	0.108109444
188	0x3e2d994a	0.16953006
189	0x3d1c3fa7	0.03814664
190	0x3e343fe8	0.17602503
191	0x39bf2832	0.00036460307
192	0x3db75a8b	0.089528166
193	0xbe0f8343	-0.14014916
194	0x3d5364aa	0.051609673
195	0x3d2cd045	0.04219081
196	0x3d0e5dcf	0.03475743
197	0x3e2f9efc	0.17150491
198	0x3e336e6a	0.17522588
199	0xbdd24d18	-0.10268611
200	0xbe9b4bfe	-0.30331415
201	0x3e220947	0.15823852
202	0xbcec9678	-0.028880343
203	0xbe496fc4	-0.19671541
204	0x3df75cb1	0.12078226
205	0xbdc6ca6b	-0.09706577
206	0xbe3503ad	-0.17677183
207	0x3e45d2ca	0.19318691
208	0x3e2b30cf	0.16717838
209	0xbc8401b3	-0.016114092
210	0xbbc7e07d	-0.006099759
211	0x3df4f6e9	0.11961157
212	0xbd955eb9	-0.072934575
213	0x3d89b609	0.067241736
214	0x3dd0bf8d	0.101927854
215	0xbd9df42c	-0.07712588
216	0xbdb071bf	-0.08615445
217	0x3e35564c	0.17708701
218	0x3d7f56ff	0.062338825
219	0x3daa114b	0.083040796
220	0xbdb75103	-0.08950999
221	0xbd8ba8aa	-0.068192795
222	0xbc48134f	-0.012211635
223	0xbe4732a7	-0.19452916
224	0xbe0ce991	-0.13760974
225	0x3e34eee5	0.17669256
226	0x3e4aa77e	0.19790456
227	0x3e4c1bc2	0.19932464
228	0xbdf157c9	-0.11784322
229	0xbd32381b	-0.043510538
230	0xbdfe3dba	-0.12414117
231	0x3ca36e21	0.019949974
232	0x3bfcfa13	0.007720241
233	0xbcdaf802	-0.026729587
234	0xbca8a13c	-0.020584695
235	0x3df26f52	0.11837639
236	0x3dd255ed	0.10270295
237	0x3e2b3db8	0.16722763
238	0x3e205a22	0.15659383
239	0x3ddc2be8	0.10750562
240	0x3e36f7e4	0.17868
241	0xbd7b0bdb	-0.061290603
242	0x3dbe6582	0.09296705
243	0x3dc79baf	0.09746491
244	0xbdbc4a23	-0.09193828
245	0x3cf0a6de	0.029376443
246	0x3de86f53	0.113493584
247	0xbdd140d4	-0.10217443
248	0xbe0a138a	-0.13484016
249	0x3e04d599	0.12972106
250	0xbe25d6ef	-0.16195272
251	0xbe0c2775	-0.13686927
252	0xbdd1a94e	-0.102373704
253	0x3e041ae7	0.12900887
254	0x3df25fd4	0.11834684
255	0xbc4b919b	-0.012424852

bias f4 [10]
0	0xbdb9be7b	-0.090695344
1	0x3d6e1410	0.0581246
2	0x3ca2c321	0.019868435
3	0x3d4e1e8b	0.050322097
4	0xbd7ace6a	-0.061232008
5	0xbd8b3a6a	-0.06798251
6	0xbdc2edb9	-0.09517998
7	0x3c9cb3df	0.019128738
8	0xba89baf2	-0.0010507985
9	0x3d9fc3f0	0.07801044
