mnist_model_fully_connected.pt (torch, 409551 bytes, 4 tensors)

weight f4 [128, 784]
000000 72 dd f1 3c 30 23 d8 bb 85 59 0f bd 3c 59 28 3c
       0.029524539 -0.0065959916 -0.03499748 0.010275181
000010 4d 72 07 3d fe 56 fe 3c e0 16 10 bd d9 ab 03 3d
       0.03306799 0.03104734 -0.035178065 0.03214631
000020 b8 95 31 3c ff b2 06 bd 7f 70 0c 3d 50 a6 01 3b
       0.010838918 -0.032885548 0.034286972 0.0019782968
000030 f5 55 a0 3b cc 55 61 3c 7d 8b 2f 3c f0 da ae bc
       0.0048930594 0.013753366 0.010714409 -0.021344632
000040 80 86 a7 3c 78 f4 ce 3c 4e d1 96 bc 24 61 8d 3c
       0.020449877 0.025263056 -0.018410351 0.017258234
000050 b0 17 d0 bb 9e bc bd bc ae f5 60 bc c0 00 89 bb
       -0.00635048 -0.023161229 -0.01373045 -0.0041809976
000060 45 f0 a0 bc 2e 75 a4 3c de 4d ac 3c aa a7 8a bc
       -0.01964582 0.020075407 0.021033224 -0.016925652
000070 f0 9e b5 bc 00 a0 d5 36 e0 19 00 3c d0 42 af 3c
       -0.022170514 6.366521e-06 0.007818669 0.021394163
000080 a8 6c 99 bb 15 68 bb bc c1 cd ad b8 d5 09 de 3c
       -0.0046821423 -0.022876779 -8.2876075e-05 0.027104298
000090 e1 ca 67 3c b9 97 f8 3c cd 4f 3c 3b 43 31 c2 bc
       0.014147491 0.030345785 0.0028734088 -0.02370513
0000a0 43 a9 d7 bb 68 5b 04 bd 7b b4 00 3d 51 8b 0e ba
       -0.006581457 -0.032313734 0.03142212 -0.000543763
0000b0 a4 2c 6a 3c 3c 8a de 3b 14 dd 98 bc 44 92 38 3b
       0.01429287 0.006791381 -0.018660106 0.0028163353
0000c0 a3 f8 24 3c 9f c8 0e bd e5 22 c8 bc a4 fb 0e 3d
       0.010069045 -0.034859296 -0.024430702 0.034907952
0000d0 24 b1 91 3c 50 d0 8d 3c e0 23 6c bc 88 ab 09 bd
       0.017784663 0.017311245 -0.01441285 -0.03361085
0000e0 78 17 6e bc aa 64 b5 bc ae c8 5f bc 29 25 10 3d
       -0.014531963 -0.022142727 -0.013658686 0.03519169
0000f0 cd d3 da 3c 7d 9e ca 3c b7 8c f3 bc b5 72 5e 3c
       0.026712323 0.024733776 -0.029730184 0.013577153
000100 4c 4c ab bc e7 a9 00 bc f1 ff c5 3c 1b e9 d6 bb
       -0.020910405 -0.007853008 0.024169894 -0.00655855
000110 4b ea 06 3d b3 21 54 3c 42 5f 82 bc 7f e5 50 bc
       0.032938283 0.012947488 -0.015914563 -0.012750029
000120 65 42 4e 3c a7 7d 75 bc 37 19 2b bd 63 de 7a 3b
       0.012589072 -0.014983571 -0.041772094 0.0038279525
000130 b8 2f 50 3c 38 63 84 3c 0b 62 c0 ba e8 df b8 3b
       0.01270669 0.016160592 -0.0014677657 0.005641926
000140 8b e0 19 3c b8 3a c7 bc e8 9b f9 3b b2 c9 1b bc
       0.009391914 -0.024319991 0.0076174624 -0.009508537
000150 48 1f a5 3b a0 4a 13 3c ac 84 f4 bc 3b 7a 05 3d
       0.0050391294 0.00898996 -0.02984842 0.03258727
000160 3b ce 00 3d 2e 30 01 bd 65 e6 10 bc 78 42 6a 3c
       0.031446677 -0.03154009 -0.008843993 0.014298074
000170 28 a6 35 bc 1c b1 b6 bb 20 a7 2d bd c1 ca ee 3b
       -0.011086978 -0.0055753123 -0.04239571 0.0072873537
000180 25 08 7e bd 04 1b 03 bc 3c 7a 7c bd 47 25 33 bd
       -0.062019486 -0.0080020465 -0.06164001 -0.043736722
000190 87 da c8 bd a3 63 a9 bd 7b 9e c2 bd 26 83 19 bc
       -0.09807306 -0.08270957 -0.09502884 -0.009369647
0001a0 d0 fd 81 bd da 20 3f bd e5 62 df b8 bd e1 03 bc
       -0.06347239 -0.04666219 -0.00010651889 -0.008049426
0001b0 4b cf 88 bb 3d 41 9f bc 8d 84 98 bc 53 77 dd bc
       -0.004175102 -0.019440288 -0.018617893 -0.027034437
0001c0 86 0e 12 bd 52 b4 c4 bc 71 49 9c 3c 1b 8b e3 3b
       -0.035658382 -0.024011765 0.019077988 0.006944073
0001d0 0d 03 aa bc ba f3 d6 3c 12 cc 8b ba 67 01 12 bd
       -0.020753408 0.026239265 -0.0010665676 -0.03564587
0001e0 93 43 40 bd 4a 32 b4 bc 39 87 88 bd 34 22 98 bd
       -0.046939444 -0.021996636 -0.06666417 -0.07428399
0001f0 cf 9f f3 bd a6 75 1b bd a6 5b 99 bd cd 35 a0 bd
       -0.118957154 -0.037953995 -0.07488184 -0.07822762
000200 3b 46 e5 bc 61 da 3f 3c d9 9f a2 3c ba 9c 23 3c
       -0.02798759 0.01170978 0.019851612 0.009986097
000210 83 02 86 bc ad c2 d1 bc 9d cb 0c bd 87 65 28 bd
       -0.01635862 -0.025605524 -0.03437387 -0.04111245
000220 a3 4e cd bc 28 21 9c bc 1a d8 04 ba 14 8a 02 3d
       -0.025061911 -0.019058779 -0.0005067602 0.031869963
000230 90 d5 22 3c 41 18 f0 bc 21 fe 59 3c d0 54 ab bb
       0.009938613 -0.02930844 0.013305218 -0.0052286163
000240 65 34 c8 bc 20 02 9b 3c 4e 93 d2 bc 9b 54 56 bd
       -0.024439046 0.018921912 -0.025705006 -0.05232678
000250 40 30 76 3d ca 11 19 3d e4 b7 af bd 24 7d 05 bd
       0.06010461 0.03737048 -0.08579996 -0.032590047
000260 e5 80 e7 bc b6 fb b1 bc 7d 60 8b 3c 19 b3 fc 3c
       -0.028259704 -0.02172647 0.017013783 0.03084712
000270 15 21 68 3d 81 72 3e 3b fb 8d ba bc 2d 45 04 bc
       0.056672174 0.002905995 -0.02277278 -0.008073133
000280 cf 86 98 bc 37 32 1c bd b4 ad 4e 3d 61 21 b5 bb
       -0.01861897 -0.038133826 0.050458625 -0.0055276607
000290 30 58 aa 3c 53 b4 92 bc 26 d4 09 3d d4 92 bd bc
       0.020794004 -0.01790825 0.033649586 -0.023141302
0002a0 60 0b 0f bd f1 f4 ba bc 49 a5 b1 3c 64 b8 9f 3c
       -0.034922957 -0.022821875 0.02168526 0.019497104
0002b0 77 96 83 3c fa fe 89 3c 5a 7f e1 bc d5 43 68 bc
       0.016062958 0.016845215 -0.027526546 -0.014176329
0002c0 9e bf 8c 3b 71 a7 2d bc f2 76 84 bc f0 e9 42 3d
       0.0042953035 -0.010599003 -0.016169999 0.04758638
0002d0 44 78 bc 3d d3 fc 07 3d 9c a1 ca bc f2 6b 09 bd
       0.09202626 0.033200096 -0.024735264 -0.03355021
0002e0 d7 21 39 bd 71 fa 81 3d ae 85 ed 3a 8e 91 57 3c
       -0.045198288 0.06346596 0.0018121505 0.013157262
0002f0 1e 2b 02 bd 25 4f a7 3d ee cc 26 3d 34 05 d2 3b
       -0.0317794 0.081693925 0.04072278 0.0064093117
000300 0d 34 e1 3c 98 da 69 bc c2 86 66 bb 41 e6 a9 bb
       0.02749064 -0.014273308 -0.0035175537 -0.005184919
000310 9d 6e 96 3b db 4a 89 bc 57 9f ff 3b 2e a1 af 3c
       0.004590823 -0.016759327 0.007800977 0.021439161
000320 eb f5 c2 3c 25 d4 35 3c b0 c8 47 3c 63 79 08 bc
       0.023798903 0.0110979425 0.012193844 -0.008329722
000330 ed b3 9a 3c e2 72 9e 3c c1 e3 27 bd d5 98 c2 bd
       0.018884623 0.01934189 -0.040988687 -0.09501807
000340 1e 3b b7 3b 66 d6 ea ba c7 db 86 bd ac bd 93 bd
       0.005591764 -0.0017916679 -0.06584888 -0.072139114
000350 aa 96 10 bc 7c c5 77 bc d6 a9 e9 3d ac de a6 3d
       -0.008824984 -0.015122768 0.11409347 0.0814794
000360 b2 93 80 3d ec b2 12 3e 92 89 fa 3d 16 2c 69 3d
       0.06278171 0.14326066 0.12233271 0.05692681
000370 78 0e fd bc 28 cc 80 3c f1 c3 e7 bc 78 2b 7d bc
       -0.030890688 0.01572235 -0.028291674 -0.015452258
000380 7c 0f 6f bc ba 7b 28 bc f5 97 d4 3c 2a 9c a3 3c
       -0.014591094 -0.010283405 0.025951365 0.019971926
000390 93 54 df 3d 21 5c c0 3d 3e 14 5d 3d 64 2e dc 3d
       0.10904803 0.09392572 0.053974383 0.10751036
0003a0 4a 73 b7 3d 2d a8 3a 3d 9d 5e 3f 3c cd 46 04 bc
       0.089575365 0.04557054 0.011680272 -0.008073521
0003b0 d0 63 f7 3c 5e 6a a2 3d 28 a3 1a 3d 54 67 4c 3b
       0.030198961 0.07930444 0.037753254 0.0031189518
0003c0 b8 1a 30 bc 07 e8 b3 3c 0f 1e 0d 3d 94 43 f1 3d
       -0.010748558 0.021961225 0.034452494 0.11780468
0003d0 05 2a e7 3d 08 5f c0 3c a8 b2 ba 3d 1a 4a c7 3d
       0.112873115 0.023482814 0.09116107 0.097309306
0003e0 31 0d f7 bc 23 4f 1e bd 5a f9 dd 3b ee cd 9e bc
       -0.030157657 -0.03864969 0.00677411 -0.019385304
0003f0 c1 a3 29 bc 2a dd 44 bc 5d 1c 90 3c a6 65 bb 3c
       -0.010353983 -0.01201562 0.01759165 0.022875618

bias f4 [128]
000000 40 32 de bd af 64 af bc 6a 55 45 3d d7 6e 4a 3c
       -0.10849428 -0.021410314 0.04817716 0.012355528
000010 0b 0a 8d 3d b8 d0 e5 bb f7 5a 88 3a ba 06 eb bd
       0.06886681 -0.0070134066 0.0010403086 -0.11475892
000020 9d cc ee 3d 3d 40 22 3d a1 02 e9 bd 03 27 7f 3d
       0.11660121 0.039612044 -0.113774545 0.062293064
000030 fe 4e 64 3d 6e 50 9a 3d 2d c8 96 bb e6 02 f1 3d
       0.055739395 0.07534872 -0.0046014995 0.11768131
000040 f5 72 9f 3d 66 09 a3 3d ea b6 77 bc c6 ad 90 3d
       0.07785598 0.07960777 -0.015119294 0.07064395
000050 42 d6 b4 bc b0 42 19 be 68 b8 9a bd b7 c2 d4 3d
       -0.022074822 -0.14966846 -0.07554704 0.103887014
000060 82 20 77 3d 9b 96 e5 bc 2f a4 1e 3d 02 6d 09 bd
       0.060333736 -0.028025916 0.038730796 -0.033551224
000070 75 6a 06 be 9f b0 83 bd 74 ff bf 3d 6b 3a 1f be
       -0.13126548 -0.06430172 0.09374896 -0.15549628
000080 7c 95 13 3e f8 fc 2c 3e 40 c2 05 3d 48 da ec 3d
       0.14412493 0.16893375 0.032655954 0.11565071
000090 e2 9f 75 3c fd ee 81 3d fc af 9a 3c 94 be da bc
       0.014991732 0.063444115 0.018882744 -0.026702203
0000a0 46 84 76 bd fb 8b bd 3c e3 fb ce bc ac c1 af bd
       -0.06018474 0.023138037 -0.025266593 -0.08581862
0000b0 fa 90 d8 3b 0c df fe 3c 2e 99 82 bd 69 71 87 bc
       0.0066090794 0.031112216 -0.06376873 -0.01653357
0000c0 93 b2 6e 3d 55 5a 4f bc da ee a7 3e 65 27 56 3e
       0.05827577 -0.012655814 0.32799417 0.20913465
0000d0 b6 2e 16 bd ef 52 4b bd 63 c7 a1 3c d5 1e 56 3d
       -0.03666564 -0.04963964 0.019748395 0.052275497
0000e0 dd 1c e8 bb 1a 51 1f 3c 77 b9 d3 3d a9 3d 20 3a
       -0.007083519 0.009723926 0.10338109 0.00061127037
0000f0 06 d3 ba bd 9c 37 b4 bd 78 0f 32 3d 21 b2 ea 3c
       -0.09122281 -0.08799669 0.043471783 0.028649392
000100 25 bf 1d 3e ca 59 e3 3d d9 6a e4 3d 7f 6f 75 3e
       0.15404947 0.1110111 0.11153192 0.23968314
000110 98 80 a8 3d 58 a7 52 3d 5f 7a 45 3e fb cc 0e be
       0.08227652 0.051429123 0.19284962 -0.13945381
000120 12 00 28 3e 67 d0 2f 3e 88 e1 17 3e 9b 64 bd 3c
       0.16406277 0.17169343 0.14832127 0.023119261
000130 d3 1e a5 3d 93 14 d7 3d 04 76 65 3d b8 21 a1 3d
       0.0806252 0.10501971 0.05602075 0.078677595
000140 ff 31 49 3d 67 31 5e 3e af 04 df 3d 13 95 40 3d
       0.049119946 0.21698533 0.10889565 0.04701717
000150 b6 71 26 3d a4 0b 39 bd 44 97 0c 3e 89 2f e0 3c
       0.040635787 -0.045177117 0.13729578 0.027366417
000160 bc 67 62 3d 1c be 0f bd 0e 62 8c 3c 0c f3 a8 3d
       0.05527471 -0.03509341 0.0171366 0.082494825
000170 84 e6 82 bd 20 b0 78 bd 0b d6 b3 3c 27 30 fe 3d
       -0.063916236 -0.06071484 0.02195265 0.12411528
000180 04 f3 6a 3b ed 7b 8a bd ed 69 f6 3c c7 58 3d be
       0.0035850415 -0.06761918 0.030079806 -0.18490897
000190 42 5f 80 3d 75 78 67 3d bc 30 f2 3d 06 e8 7e bb
       0.06268169 0.05651136 0.118257016 -0.003889562
0001a0 38 61 de 3d 5f 72 4c bd 81 c2 6a 3d e1 47 ea bc
       0.10858387 -0.04991376 0.0573144 -0.028598728
0001b0 78 fa 15 3d d6 5c 99 3b 3c 5b 24 3e 4a f9 b4 bd
       0.03661582 0.0046802564 0.16050428 -0.088366106
0001c0 68 f3 1d 3e d1 9f 2d bd 7a d4 ad 3c 86 68 37 3c
       0.15424883 -0.04238874 0.02121948 0.011194354
0001d0 f5 94 53 bd a1 cb 0b 3e 72 73 8c 3e 62 4b be 3d
       -0.05165573 0.13651897 0.27431828 0.09291722
0001e0 72 38 7c bc 27 1c 17 3d dc 1a 2c 3e ea ae 2c bd
       -0.015394317 0.036892083 0.16807121 -0.042159
0001f0 93 46 77 3d 51 47 91 3d cc a6 11 3d 41 3f 39 3d
       0.06037004 0.07093681 0.03555946 0.04522634

weight f4 [10, 128]
000000 fa 8b 0d bf 4a 39 8a bd dc 63 af 3e 0c 57 b4 3d
       -0.5529171 -0.06749208 0.34255874 0.088056654
000010 80 1c 0d 3f 52 4e b6 3b 27 fb 24 be b2 af a7 3e
       0.5512161 0.0055635357 -0.16111432 0.32751232
000020 f0 b5 9b bd b0 4d 0c be 8e 3a c8 be 00 21 02 bf
       -0.07603061 -0.1370151 -0.39107174 -0.50831604
000030 ad 03 00 3f e1 cf 2d 3c 80 6b ac 3d 55 a4 66 be
       0.5000561 0.010608644 0.084189415 -0.22523625
000040 f6 be aa bd 1f 01 82 be e7 c1 a9 bd 48 4d fd bd
       -0.08337204 -0.2539148 -0.08288937 -0.12368256
000050 c1 1f 74 3e ce 95 63 3e 7c 58 34 be 40 77 10 3e
       0.23840238 0.22225115 -0.17611879 0.1410799
000060 e6 d5 d2 be 62 8b d6 be 1f f5 28 3d 32 e7 04 3c
       -0.41178817 -0.41903216 0.04124939 0.008111762
000070 35 b0 1e bf 94 8c 09 3e 1e 3d 15 3f 24 9b d0 3e
       -0.6198762 0.13432533 0.5829638 0.40743363
000080 81 fe f2 3e f0 4b a8 3c 03 0a 99 3e 3f f1 c1 be
       0.47459796 0.020544022 0.2989045 -0.3787937
000090 02 4a 67 3e a1 71 85 3e 77 4a d7 3d a1 80 29 bd
       0.22586825 0.26063254 0.1051225 -0.041382436
0000a0 bf da ea 3c f1 2c c8 bd ce 2e dc be dd 1d 85 be
       0.02866876 -0.09774197 -0.4300446 -0.25999346
0000b0 6e ff 0d bf 81 f6 ee 3d 5b 7d 2e 3e 89 3f 9d 3e
       -0.5546788 0.11668111 0.17040007 0.30712536
0000c0 6a ae 40 bd 19 ee d1 3e 5e 51 fe bd c1 20 60 be
       -0.047041334 0.41001967 -0.12417863 -0.21887495
0000d0 81 5b e9 3e 84 6a c5 3e 90 35 b2 3e 95 4e 37 3e
       0.45577624 0.38557827 0.3480649 0.1790107
0000e0 51 14 09 3e 85 12 5a 3d 53 6b ad be d4 51 40 bd
       0.13386656 0.053240318 -0.33870944 -0.046953037
0000f0 3f c4 86 3e 36 49 a9 be d6 4d c1 3c 42 c2 f2 3d
       0.263216 -0.33063668 0.023596685 0.11853458
000100 c7 23 61 3d c7 d6 59 3e de 95 40 3e 91 51 e6 be
       0.05496576 0.21273337 0.1880717 -0.44984105
000110 c0 c2 6f 3e 4c f8 6f be 65 c6 ae 3d 2b 51 0f be
       0.23414135 -0.23434561 0.085339345 -0.13995807
000120 db 55 88 be 7c df 23 3f 76 7e ef bc c2 a1 48 be
       -0.26628003 0.64012885 -0.029235106 -0.19592956
000130 d3 62 93 3e 9e 2b e3 3c 1a 6c 7a be e2 53 04 bf
       0.28786334 0.02773076 -0.244553 -0.51690495
000140 28 14 3d bf 8f da 0e 3f 8b 86 e1 be c9 e0 ae be
       -0.7385888 0.55802244 -0.4404796 -0.34155872
000150 de e3 e7 bd 18 70 02 be 4a 93 ac 3e ea 58 94 bd
       -0.11322759 -0.12738073 0.33706123 -0.072435215
000160 5c c3 61 be ca 9c d5 3e 9a c2 88 3e b5 b0 c0 3e
       -0.2204718 0.41721183 0.2671097 0.37634817
000170 c7 51 c1 3e 9f 73 83 be 1d fc 6c bd 77 c9 8d be
       0.37757704 -0.2567415 -0.05785762 -0.27692768
000180 a5 43 e5 3d cb 10 e1 bd 70 68 95 3d 16 b0 22 3e
       0.11194543 -0.10989531 0.072953105 0.15887484
000190 7e d0 89 bd 36 c6 9c be 9a 93 a6 3d ce 40 80 bb
       -0.0672922 -0.30619973 0.081336215 -0.0039139753
0001a0 a1 89 b4 be 1c b2 3e be 7d 87 53 bd d0 e1 f0 be
       -0.35261253 -0.18622631 -0.051642884 -0.4704728
0001b0 2f 9e cf be 1f 23 0e bf 24 6f b3 be 0e 84 36 bd
       -0.40550372 -0.5552234 -0.3504573 -0.04455953
0001c0 17 53 9f be 84 92 9f 3d 08 db bb be 41 14 0c bd
       -0.3111808 0.077916175 -0.36690545 -0.034199003
0001d0 12 16 a0 be 8f 57 66 be c9 d0 25 bd 8d 20 a9 be
       -0.31266838 -0.22494338 -0.040482316 -0.33032647
0001e0 a0 c1 27 bd db 9d 99 3b 9d a0 f2 be c3 3a 8e 3d
       -0.04095614 0.0046880073 -0.47388163 0.06944802
0001f0 3d 96 57 be e8 6a 56 be c2 f5 7d 3e c7 74 da bc
       -0.21053405 -0.20939219 0.2480078 -0.026667012
000200 29 43 ca 3e 77 ae cf be 52 b1 9b 3e d7 de b6 be
       0.39504364 -0.40562794 0.30408722 -0.35716888
000210 ae 48 87 be 5d 2b 06 3f 7b bf 8a 3d d6 a6 51 be
       -0.26422638 0.5240992 0.06774803 -0.20473799
000220 a6 43 84 3d ca f0 c2 be 54 33 86 3e 1a 39 cc 3e
       0.064582154 -0.38074332 0.26211035 0.39887315
000230 92 7b d9 be 2e 1f 1a be 75 07 20 3e 49 6b 98 be
       -0.4247709 -0.15050957 0.15627845 -0.29769352
000240 a2 1f cc 3e 66 53 9b be 34 45 09 3d 16 3a 12 3e
       0.39867884 -0.30337065 0.033513263 0.1427997
000250 bb 19 80 be 43 63 6b 3e 92 f1 64 3e 03 12 b2 bc
       -0.2501963 0.22987084 0.22357777 -0.021737104
000260 16 df 80 3e 12 d3 78 be 15 cb d1 bd 04 48 e7 3e
       0.251702 -0.24299267 -0.10243813 0.4517213
000270 e1 b0 9b 3e 30 b2 65 bd 75 3c ef be 4c 24 32 bd
       0.30408385 -0.056078136 -0.46725813 -0.043491647
000280 8c bb 97 be f5 4e 73 3f e2 33 1e bf 0a b4 84 3e
       -0.29635274 0.95042354 -0.61797917 0.2591861
000290 fd 05 c2 be 59 be 7a be f4 79 f9 be 4f 08 4c be
       -0.37895194 -0.24486674 -0.48725855 -0.19925044
0002a0 9a 77 e5 3d 11 55 4e 3f 30 47 c4 3c 5d c0 5c 3e
       0.11204453 0.8059855 0.023959726 0.21557756
0002b0 ff 29 01 3f e5 6e 54 bd a4 12 7c be 21 7a 30 be
       0.50454706 -0.05186357 -0.24616486 -0.17234088
0002c0 d7 d6 9b 3e b9 38 13 3c 65 a7 11 3f 0a 13 70 be
       0.30437347 0.008985692 0.5689605 -0.23444763
0002d0 24 1a 94 be 74 81 93 3e 7b e1 ad 3d fd be 40 3e
       -0.28926194 0.28809702 0.084902726 0.18822856
0002e0 65 23 ad bc 59 43 7c bc 9e 3e d4 be d4 c3 39 3d
       -0.021135041 -0.015396916 -0.41454023 0.045352772
0002f0 c0 b2 66 be 79 b1 3a bd eb ff 95 3d 3f 7b 8e bc
       -0.22529125 -0.045579407 0.07324203 -0.017392753
000300 9b 65 a8 3e f7 7b a5 be d6 bc 74 3c 7e 9f 07 bf
       0.3289002 -0.3232114 0.0149376 -0.5297774
000310 ca c9 b9 be a3 ea 8a 3e 2d 0c 0e be 62 3c 6f be
       -0.36286765 0.2713214 -0.13871832 -0.23362878
000320 b0 0d 82 be 57 ea 97 be ae 80 41 be 53 5f 78 3e
       -0.25401068 -0.29670975 -0.18896744 0.24255113
000330 9f fc 99 bd f8 dd 14 be 98 0f e2 ba 7d 1b a6 be
       -0.07518887 -0.145378 -0.0017247079 -0.32442847
000340 81 82 18 3f ba a4 65 3e 30 ef c9 3d 82 89 88 3e
       0.59574133 0.2242612 0.098600745 0.2666741
000350 dc 37 74 bd 7f bc 6e bd 01 5e e7 bd 48 4a 79 3e
       -0.059623584 -0.058285233 -0.11297227 0.24344742
000360 99 cb 39 3f 8b 1c ea be cd ab 41 be 37 ff 05 be
       0.7257629 -0.45724902 -0.18913193 -0.13085638
000370 b3 75 8c 3e 35 43 a5 3e 57 55 5f bd c0 6f 65 3e
       0.27433547 0.32277837 -0.054524746 0.2240591
000380 13 53 df be 03 41 24 bd 39 72 9a bd 98 7a 15 bf
       -0.43618068 -0.040101063 -0.075413175 -0.5839019
000390 22 7e c8 3d b6 44 01 3e 86 46 37 bd cd 5e 50 3e
       0.09789683 0.12623867 -0.04474499 0.20348664
0003a0 14 b5 5e 3e 78 67 f3 3e 15 22 42 be 2f e7 32 3f
       0.21748763 0.47539878 -0.18958314 0.6988401
0003b0 f1 fe d1 be ec f9 42 be 98 6c 6a 3d 7d 30 1d be
       -0.41014817 -0.1904065 0.05723247 -0.15350528
0003c0 3c ed ea bd bb fe 91 be aa 3f 84 bc 33 b5 13 bd
       -0.1147103 -0.28514656 -0.016143639 -0.036061477
0003d0 cd 84 75 bc 33 78 07 bf a3 e6 68 bd 71 91 d7 3e
       -0.014985275 -0.52917784 -0.056860577 0.4210315
0003e0 58 4e cd bd b1 95 d5 be 8a 88 f3 3e f3 b7 93 3c
       -0.100247085 -0.41715768 0.4756511 0.01803205
0003f0 03 9b eb bc 30 91 d9 bd d8 9c 9c be 5f 50 26 3d
       -0.028760439 -0.106233954 -0.30588412 0.04060399

bias f4 [10]
000000 96 e9 95 be af ec 6b 3e 9f ba c1 bd f7 46 25 be
       -0.29279774 0.23039506 -0.09459423 -0.16140352
000010 63 c2 1c 3e 9b 12 87 3e 57 7d ab bd ee a0 24 3d
       0.15308528 0.26381382 -0.08373516 0.040192537
000020 dd d8 2c 3e 78 30 63 bc
       0.16879602 -0.013866536
